output/contrastiveModel/ct2/model_ct2.pt (torch, 800828 bytes, 26 tensors)

backbone.cnn.0.weight f4 [128, 31, 2, 3]
0	0xbcbe3117	-0.023216767
1	0xbce4f1e9	-0.027947383
2	0xbd38120d	-0.04493909
3	0xbad16e2d	-0.001597827
4	0xbd44a057	-0.048004474
5	0xbc76f83f	-0.015073835
6	0x3d527de6	0.051389597
7	0xb9b7b0b6	-0.0003503614
8	0xbc7fee8a	-0.015620837
9	0x3d899404	0.06717685
10	0x3c1b8c78	0.00949394
11	0x3c81658e	0.015795495
12	0xbd4ffd65	-0.050778765
13	0xbd1225ec	-0.035680696
14	0x3d847680	0.064679146
15	0x3c9bac48	0.019003049
16	0xba55d72a	-0.0008157367
17	0x3cc08e09	0.023505228
18	0x3d15d9f1	0.0365848
19	0x3b988c96	0.004655431
20	0xbc245470	-0.010029897
21	0xbd658bbd	-0.056041468
22	0xbd8acddc	-0.06777546
23	0x3d8c6baf	0.068564765
24	0xbcccc6af	-0.024997083
25	0x3d21303d	0.039352644
26	0xbcac0761	-0.020999612
27	0x3c72cc8c	0.014819276
28	0xbcf3c400	-0.029756546
29	0x3bce62d9	0.0062984047
30	0x3ce4efd8	0.027946398
31	0xbcfc8353	-0.030824339
32	0xbd41172f	-0.04714125
33	0x3c8917f4	0.016735055
34	0x3d2ec507	0.04266837
35	0xbd633d14	-0.05547817
36	0xbd0f2b7a	-0.03495357
37	0x3da6bb2f	0.08141171
38	0xbd88c63a	-0.06678434
39	0x3d44d374	0.04805322
40	0xbd5e360d	-0.054250766
41	0x3cd41518	0.025888965
42	0xbd45568f	-0.04817825
43	0x3cebafd2	0.028770361
44	0xbd0f820b	-0.035036128
45	0x3d29ebc6	0.041484617
46	0xbc4ebc49	-0.012618133
47	0x3cdd9d92	0.027052674
48	0xbd7f77d2	-0.06237013
49	0xbd116a75	-0.035501916
50	0x3d18d0a6	0.037308358
51	0x3d25402c	0.040344402
52	0x3946cbb4	0.00018958637
53	0xbd8390d6	-0.0642411
54	0x3c9398ac	0.018017136
55	0xbd67e3c5	-0.056613702
56	0x3d36df32	0.04464645
57	0x3cbd9f21	0.023147168
58	0x3d49a590	0.04923016
59	0x3cd53414	0.02602581
60	0x3d2d4793	0.042304587
61	0xbd43abd0	-0.047771275
62	0x3c2f6432	0.010705041
63	0xbd12c137	-0.035828795
64	0x3d1ded77	0.038556542
65	0x3c9afde8	0.0189199
66	0x3d8e3e31	0.06945456
67	0x3cf4ef82	0.029899362
68	0x3d2be909	0.041970287
69	0xbd7f8faa	-0.062392868
70	0xbd726a4c	-0.059183404
71	0x3d829f91	0.06378091
72	0xbc6e57d4	-0.014547307
73	0x3b490806	0.0030674948
74	0x3d98b9a4	0.07457283
75	0x3d8b50a1	0.06802488
76	0xbd1b958b	-0.037984412
77	0xbd720d99	-0.059095
78	0xbb1e7a4d	-0.0024181784
79	0x3d9ccfa7	0.07656794
80	0xbd8c4f58	-0.06851071
81	0x3d11ae9b	0.035566907
82	0x3b77abd8	0.0037791636
83	0x3b8632b0	0.004095398
84	0x3d07b474	0.033131078
85	0x3cc939e4	0.024563737
86	0x3c8b7a57	0.01702611
87	0x3d87946e	0.066201076
88	0x3b194165	0.0023384925
89	0xbd863bcc	-0.06554374
90	0xbcb40f3a	-0.021979917
91	0xbda03e18	-0.078243434
92	0x3c990f2c	0.018683992
93	0xbc831439	-0.016000854
94	0xbba04039	-0.0048904684
95	0xbd1a0bac	-0.037608787
96	0xbd90f79d	-0.070784785
97	0xbd0c88fc	-0.034310326
98	0xbccc0d15	-0.024908582
99	0xbcfd3952	-0.030911122
100	0x3cc69dce	0.024245169
101	0x3c86ce06	0.016455662
102	0xbc4a79e2	-0.012358161
103	0x3d2974d6	0.04137119
104	0xbcd538e2	-0.0260281
105	0xbbe7eed8	-0.007078033
106	0xbd0e44b6	-0.034733497
107	0xb9f19c10	-0.00046083378
108	0x3d203bf7	0.039119687
109	0xbd63625d	-0.05551373
110	0xbda0f65c	-0.07859489
111	0x3cd9ff42	0.026610974
112	0xbd90e42c	-0.0707477
113	0x3c8cd6b7	0.017192228
114	0xbc88b437	-0.016687496
115	0x3c8f3156	0.01747958
116	0xbd8083bd	-0.06275127
117	0x3c8092f5	0.015695075
118	0xbcf18dfd	-0.02948665
119	0xbd063c85	-0.03277256
120	0x3ceb5a44	0.028729565
121	0xbcc9ca3c	-0.024632566
122	0x3c8aa84e	0.016925957
123	0xbc7d2e81	-0.015452982
124	0xb967c6da	-0.00022103955
125	0x3d3fc48a	0.046818294
126	0xbb80d324	-0.00393142
127	0x3d4b28f8	0.049599618
128	0xbd2d950f	-0.04237848
129	0xbc2cc163	-0.010544154
130	0xbc8ec7cc	-0.017429255
131	0x3d526938	0.051369876
132	0x3d224c03	0.03962327
133	0xbd820ea4	-0.06350449
134	0x3b02ca9d	0.0019957193
135	0x3d618666	0.055059813
136	0xbd124c3e	-0.03571724
137	0x3d8f4660	0.06995845
138	0x3d2e3908	0.042534858
139	0x3d4f058c	0.0505424
140	0xbd8fb848	-0.07017571
141	0x3d621f26	0.055205487
142	0x3d961d09	0.07329757
143	0xbc39e5d0	-0.0113462955
144	0xb9813ca3	-0.00024649975
145	0x3d635829	0.055503998
146	0xbd83fa9e	-0.06444286
147	0xbd542df8	-0.05180165
148	0xbd7c9314	-0.061663702
149	0x3d34ed20	0.044171453
150	0x3cf5d34a	0.030007977
151	0x3d54da17	0.0519658
152	0xbb9fb238	-0.0048735403
153	0x3d800836	0.06251566
154	0x3ba70a4e	0.005097664
155	0xbd3e7ba5	-0.046504635
156	0xbcb4ab84	-0.022054441
157	0xbd99debd	-0.07513187
158	0xbd8449a6	-0.0645936
159	0x3b77f827	0.003783712
160	0xbcf2fc66	-0.029661369
161	0x3d647ede	0.055785052
162	0xbc72fd67	-0.014830924
163	0xbafab73e	-0.0019128097
164	0xbd7b39fd	-0.0613346
165	0x39af9c36	0.00033494987
166	0x3a2022b2	0.00061086856
167	0xbbf246d4	-0.0073936973
168	0x3cec2d5d	0.028830225
169	0xbd8798fb	-0.066209756
170	0x3cffbc00	0.031217575
171	0xbd3d5eff	-0.046233173
172	0x3b15df51	0.0022868703
173	0xbd25e9a6	-0.040506028
174	0x3d3477d3	0.044059586
175	0xbce365d7	-0.027758522
176	0xbd8178b4	-0.063218504
177	0x3cfe4860	0.03104037
178	0xbacb78f1	-0.0015523714
179	0xbd244dcf	-0.040113267
180	0x3d7c7219	0.06163225
181	0xbd89049c	-0.06690332
182	0xbd613fd7	-0.054992523
183	0xbb4eb5af	-0.0031541397
184	0xbd37c11a	-0.04486189
185	0x3d0f9094	0.03504999
186	0x3cc56e2a	0.024100382
187	0xbd0e6d78	-0.034772366
188	0x3d6b4328	0.057437092
189	0xbb8a84be	-0.00422725
190	0x3d136802	0.03598786
191	0x3c99d4f8	0.01877831
192	0xbce5c221	-0.02804667
193	0xbd18bd8a	-0.037290134
194	0x3ce0ebd7	0.027456207
195	0x3d49afb3	0.049239825
196	0x3c3f190d	0.011663687
197	0x3d564c55	0.05231889
198	0x3a731bbf	0.0009273849
199	0x3d0f32ac	0.034960434
200	0xbd6880be	-0.056763403
201	0x3be479f1	0.0069725444
202	0xbb4aa592	-0.0030921442
203	0x3d5b593f	0.05355191
204	0xbc4b3166	-0.012401914
205	0x3ac918f5	0.0015342521
206	0xba19f870	-0.0005873507
207	0x3cdf49d6	0.027256887
208	0xbbdaedf7	-0.0066811997
209	0xbd0ea40c	-0.034824416
210	0xbc4ea462	-0.012612434
211	0x3c9ff889	0.01952769
212	0xbb0419a7	-0.0020156892
213	0xbd69eb2a	-0.057109036
214	0xbc99c2ec	-0.018769704
215	0xbd0308ff	-0.031991
216	0xbc007698	-0.007840775
217	0x3cf30fd4	0.029670633
218	0x3c9eef98	0.019401357
219	0x3a8e5606	0.0010859377
220	0x3d84c8f1	0.06483639
221	0x3ccb4189	0.024811523
222	0x3d88a65b	0.06672355
223	0xbd1bd4ec	-0.038044855
224	0x3c88d066	0.016700935
225	0xbcdd2693	-0.026995933
226	0x3ce6332e	0.028100576
227	0x3c9227f7	0.017841322
228	0xbd667b1e	-0.056269757
229	0xbd0f0b2c	-0.034922764
230	0xbd1bf3e5	-0.038074393
231	0x3d631ea2	0.055449136
232	0x3d14547d	0.036213387
233	0xbcd552ad	-0.0260404
234	0x3c875ea8	0.016524628
235	0xbc91b55f	-0.01778668
236	0xbd8ed7c9	-0.069747515
237	0x3c287863	0.010282609
238	0xbd16c397	-0.036807623
239	0x3be6084f	0.0070200334
240	0x3da170d9	0.07882852
241	0x3c49eec4	0.012324993
242	0xbd854533	-0.06507339
243	0xbb416a06	-0.0029512658
244	0x3cae1dc7	0.021254433
245	0x3d47cd58	0.048779815
246	0xbcec1ea3	-0.028823202
247	0x3d39ffab	0.04540984
248	0xbc1a03ff	-0.009400367
249	0xbd8431c2	-0.06454803
250	0xbd5e7089	-0.05430654
251	0xba8ca111	-0.0010729154
252	0xbc0e7c85	-0.00869668
253	0x3c383942	0.01124412
254	0xbd5c4f15	-0.053786356
255	0xbd8405df	-0.06446432

backbone.cnn.0.bias f4 [128]
0	0xbd084e13	-0.033277582
1	0xbd4f4852	-0.05060608
2	0x3cd5cb95	0.026098052
3	0x3d07ca68	0.033152014
4	0xbd87762b	-0.066143356
5	0x3d856e11	0.06515134
6	0x3d511ffe	0.0510559
7	0x3d248fef	0.04017633
8	0xbd3186e5	-0.043341536
9	0xbd1cc07f	-0.038269516
10	0xbceefced	-0.029173339
11	0xbd97dd44	-0.0741525
12	0x3d65e461	0.056126002
13	0xbd32beac	-0.04363887
14	0xbd9add33	-0.07561722
15	0x3d18db7f	0.037318703
16	0xbd87e8b1	-0.06636179
17	0xbb46a508	-0.0030310769
18	0xbbd66957	-0.006543319
19	0xbd72e442	-0.059299715
20	0xbd7ccca2	-0.06171859
21	0x3ccda94b	0.02510514
22	0xbd292f18	-0.041304678
23	0xbd8c294a	-0.06843813
24	0x3c338a4d	0.010958266
25	0xbc3a5449	-0.011372634
26	0x3bc56497	0.006023954
27	0x3d8646e7	0.06556492
28	0xbc797b62	-0.015227171
29	0x3c80f0dc	0.01573985
30	0xbd0013f8	-0.031269044
31	0x3d725a91	0.059168402
32	0x3c690ed3	0.014224726
33	0xbd02b2f6	-0.03190895
34	0xba87457a	-0.0010320388
35	0x3924060d	0.00015642513
36	0xbd86e79f	-0.06587147
37	0x3cf6c2df	0.030122219
38	0x3ba93655	0.0051639476
39	0xbc7c2b8d	-0.015391243
40	0xbd60602a	-0.05477921
41	0x3d9da151	0.07696784
42	0x3c5cb1ae	0.0134700965
43	0xbd18a83e	-0.037269823
44	0xbcdec45e	-0.027193245
45	0x3b43340a	0.0029785656
46	0x3d20faa2	0.039301522
47	0x3d1619e3	0.03664578
48	0x3cae5c0a	0.021284122
49	0x3a3e2f1d	0.0007254945
50	0x3d32ea06	0.043680213
51	0x3c5fba93	0.013655323
52	0xbd10a9c3	-0.035318147
53	0x3c37fe32	0.0112300385
54	0x3d1ce003	0.03829957
55	0xbd807547	-0.06272369
56	0xbd03a2fe	-0.032137863
57	0x3d34f5a2	0.044179566
58	0xbd44c81f	-0.048042413
59	0xbd8c22f4	-0.06842604
60	0xbc7feabf	-0.015619933
61	0x3d87d1a8	0.06631786
62	0x3d6a64bb	0.05722497
63	0x3d862817	0.06550615
64	0xbd4f9107	-0.05067542
65	0xbd856842	-0.06514026
66	0x3d67e389	0.05661348
67	0xbc2e3c4f	-0.010634496
68	0x3cfa540a	0.030557651
69	0x3c16dcbe	0.0092079025
70	0xbd8d6aae	-0.06905113
71	0xbcb102f3	-0.021607852
72	0x3cf83523	0.030298775
73	0xbd9e4ce6	-0.07729511
74	0xbd07b427	-0.03313079
75	0xbd92e9ca	-0.07173498
76	0xbc4bd951	-0.012441949
77	0xbcc83dec	-0.02444359
78	0xbd00bc16	-0.031429373
79	0xbc0c9cc2	-0.008582296
80	0x3d08c8f9	0.033394787
81	0xbc2df9fa	-0.010618681
82	0x3a3c8e5f	0.0007192846
83	0xbcfb2671	-0.030657979
84	0xbd8fe04e	-0.070252046
85	0xbd38bbfc	-0.04510115
86	0xbca960b2	-0.02067599
87	0x3d58376a	0.052787222
88	0x3d20af70	0.03922981
89	0x3c965970	0.018353194
90	0xbd18a182	-0.0372634
91	0xbd3cf99f	-0.046136495
92	0x3cc13d72	0.02358887
93	0xbd237889	-0.039909873
94	0x3d1cec13	0.038311075
95	0xbd456245	-0.04818942
96	0x3d91fcf1	0.07128323
97	0xbca3be4b	-0.0199882
98	0xbd803717	-0.062605076
99	0xbd7a5e46	-0.061125062
100	0xbd8e4711	-0.069471486
101	0xbd602077	-0.05471846
102	0xbd70fb41	-0.058833364
103	0xbcb4d280	-0.02207303
104	0x3d14ee1f	0.036359902
105	0x3c97af14	0.018516101
106	0xbd88d113	-0.06680503
107	0xbd89972d	-0.067182876
108	0x3d82c7b3	0.06385746
109	0x3c6335b4	0.013867784
110	0xbb95870b	-0.0045632175
111	0xba125d70	-0.0005583381
112	0xbd488519	-0.048955057
113	0xbd203697	-0.03911456
114	0xbd4f1c13	-0.050563883
115	0x3d4f9b05	0.050684948
116	0xbd520c4f	-0.05128127
117	0x3bcf15a6	0.0063197194
118	0x3d724a13	0.059152674
119	0x3ce78b39	0.028264629
120	0x3d5004e9	0.050785933
121	0x3d0b2d10	0.03397852
122	0xbd5e4ffb	-0.054275494
123	0x3d8d99d9	0.0691411
124	0xbc688b97	-0.014193437
125	0x3d923aa3	0.0714009
126	0xbd6850ad	-0.056717563
127	0x3c303483	0.010754707

backbone.cnn.2.weight f4 [128]
0	0x3f80460d	1.0021378
1	0x3f802f17	1.0014371
2	0x3f801b77	1.0008382
3	0x3f7f61f5	0.99758846
4	0x3f804ec3	1.0024036
5	0x3f7f3872	0.99695504
6	0x3f7f960d	0.99838334
7	0x3f7f638e	0.99761283
8	0x3f800004	1.0000005
9	0x3f7ff35a	0.999807
10	0x3f7f45fd	0.9971617
11	0x3f80551e	1.0025976
12	0x3f80523d	1.0025097
13	0x3f807c25	1.0037886
14	0x3f7f773b	0.99791306
15	0x3f7f5d34	0.9975159
16	0x3f7fc9da	0.99917376
17	0x3f8013d7	1.0006055
18	0x3f81694e	1.0110261
19	0x3f80134c	1.0005889
20	0x3f8077bc	1.003654
21	0x3f7f4319	0.9971176
22	0x3f7f4fe7	0.99731296
23	0x3f801f72	1.0009596
24	0x3f804f83	1.0024265
25	0x3f7f7695	0.99790317
26	0x3f803f8f	1.0019397
27	0x3f7fdc6c	0.9994571
28	0x3f805803	1.0026859
29	0x3f7f87c2	0.99816525
30	0x3f802e51	1.0014135
31	0x3f7fc52a	0.99910223
32	0x3f7ff7bd	0.99987394
33	0x3f7fd9b5	0.9994157
34	0x3f7fa414	0.9985974
35	0x3f7fc351	0.99907404
36	0x3f808fc2	1.0043871
37	0x3f800ff9	1.0004874
38	0x3f7fb07b	0.9987866
39	0x3f7fa04f	0.99853987
40	0x3f7efa71	0.99600893
41	0x3f7ff234	0.9997895
42	0x3f7f613e	0.99757755
43	0x3f803f80	1.0019379
44	0x3f8054b2	1.0025847
45	0x3f7f98ab	0.9984233
46	0x3f7f637d	0.9976118
47	0x3f7e5b97	0.99358505
48	0x3f8034d5	1.0016123
49	0x3f7f6e04	0.99777246
50	0x3f80213e	1.0010145
51	0x3f7f43e6	0.9971298
52	0x3f7f963b	0.9983861
53	0x3f80a0d4	1.0049081
54	0x3f7f68bf	0.99769205
55	0x3f805af6	1.0027759
56	0x3f7fe717	0.9996199
57	0x3f7fc7fc	0.99914527
58	0x3f7f881c	0.9981706
59	0x3f805d16	1.0028408
60	0x3f7f1c54	0.996526
61	0x3f8062e5	1.003018
62	0x3f7fd093	0.99927634
63	0x3f7fcc88	0.99921465
64	0x3f80a73c	1.0051036
65	0x3f7f934b	0.99834126
66	0x3f7ef3e0	0.99590874
67	0x3f7fb281	0.9988175
68	0x3f801daf	1.0009059
69	0x3f7fd47d	0.99933606
70	0x3f8025e0	1.0011559
71	0x3f800021	1.0000039
72	0x3f7fb690	0.99887943
73	0x3f7f16be	0.99644077
74	0x3f805d1d	1.0028416
75	0x3f804d45	1.0023581
76	0x3f8015f3	1.0006698
77	0x3f7ef212	0.9958812
78	0x3f8047bd	1.0021893
79	0x3f7fd9a7	0.99941486
80	0x3f7ffd94	0.99996305
81	0x3f7fe276	0.99954927
82	0x3f804a9d	1.002277
83	0x3f7ff0e2	0.99976933
84	0x3f7ed991	0.9955073
85	0x3f7f1cfc	0.996536
86	0x3f801649	1.0006801
87	0x3f7f4f53	0.99730414
88	0x3f803bd3	1.0018257
89	0x3f7f8ed5	0.9982732
90	0x3f803bb0	1.0018215
91	0x3f8021cf	1.0010318
92	0x3f7fb7e4	0.9988997
93	0x3f800152	1.0000403
94	0x3f7f43a5	0.9971259
95	0x3f8058a6	1.0027053
96	0x3f7fc558	0.999105
97	0x3f80656b	1.003095
98	0x3f7ffa5c	0.99991393
99	0x3f806ac8	1.0032587
100	0x3f7f1049	0.99634224
101	0x3f7f4f77	0.9973063
102	0x3f7f411e	0.99708736
103	0x3f7ee143	0.9956247
104	0x3f7eb3fb	0.9949338
105	0x3f8093a5	1.0045058
106	0x3f7f896d	0.9981907
107	0x3f7f1b3a	0.9965092
108	0x3f7fced0	0.99924946
109	0x3f80662e	1.0031183
110	0x3f7faebc	0.99876
111	0x3f7fec43	0.9996988
112	0x3f814ee2	1.0102198
113	0x3f806cee	1.0033243
114	0x3f80204a	1.0009854
115	0x3f80749b	1.0035585
116	0x3f80284a	1.0012295
117	0x3f7fb79a	0.9988953
118	0x3f802f7b	1.001449
119	0x3f801d6e	1.0008981
120	0x3f80a2b4	1.0049653
121	0x3f7f19b6	0.99648607
122	0x3f8012de	1.0005758
123	0x3f80786b	1.0036749
124	0x3f7f5dbf	0.9975242
125	0x3f7f3dd8	0.9970374
126	0x3f7ff35b	0.99980706
127	0x3f7fef48	0.9997449

backbone.cnn.2.bias f4 [128]
0	0xbac84a59	-0.0015280946
1	0xba8c86d1	-0.0010721331
2	0x3a80972a	0.0009810675
3	0x3a74ebc3	0.00093429926
4	0xbb0a10cc	-0.002106714
5	0xbac92e49	-0.0015348877
6	0x3b92f9da	0.004485351
7	0x3b5edf46	0.0034007593
8	0xbb65b355	-0.0035049517
9	0x39ac74aa	0.00032893318
10	0xba5e6d94	-0.00084849563
11	0x3b7de817	0.0038743073
12	0xbb2cee16	-0.0026387027
13	0x3993e043	0.00028205113
14	0x3b117ac6	0.0022198423
15	0x3890e069	6.908255e-05
16	0x3b5f4fdb	0.0034074697
17	0xb898b064	-7.28078e-05
18	0xbb02d136	-0.0019961125
19	0x3b4e4ba9	0.0031478202
20	0x3ae95aaa	0.0017803509
21	0x3b2dda87	0.0026527958
22	0x3b0d3d3a	0.0021551386
23	0xb8d85e1f	-0.00010317214
24	0xbb184bbb	-0.0023238498
25	0x3a201205	0.0006106201
26	0x3b619c79	0.003442554
27	0x3bc51e0c	0.0060155448
28	0x3b2ca636	0.0026344187
29	0x3b33f733	0.0027460575
30	0x3b3f9e44	0.002923862
31	0x3ab3764d	0.0013691873
32	0x3b39726b	0.0028296958
33	0x3b32f17b	0.0027304578
34	0x3ba8ff1a	0.0051573636
35	0xbbcc2a5c	-0.0062306356
36	0x3a699fa6	0.0008912034
37	0x3b0f5111	0.0021868388
38	0x3b19e775	0.0023483906
39	0x3bbbdb2b	0.005732914
40	0xb9d9b0f9	-0.0004152132
41	0x38691ad1	5.5576504e-05
42	0x3b7938b3	0.003802818
43	0xb89e7839	-7.55642e-05
44	0xba3fe732	-0.00073205226
45	0x3b2ced85	0.002638669
46	0x3ab45c12	0.0013760349
47	0x3b725d16	0.0036981753
48	0x3821b7b0	3.8556464e-05
49	0xbbd19b03	-0.0063966527
50	0x38e49c5c	0.000109010114
51	0x3aa09097	0.0012250122
52	0x3aa693b8	0.0012708819
53	0xbb718d4c	-0.00368579
54	0xb9a586b0	-0.00031571602
55	0x3bb51c98	0.0055270903
56	0xbb3a7a16	-0.0028454117
57	0x3a1e8e8a	0.00060484617
58	0x3b010515	0.0019686867
59	0x3ad00460	0.0015870444
60	0x3b1a59b7	0.002355201
61	0x3886e1ed	6.4317e-05
62	0x3b019bb4	0.0019776644
63	0x3b2a7c64	0.0026014084
64	0x3a86f3df	0.0010296068
65	0x3a35e3db	0.0006938555
66	0xbb6045d6	-0.0034221313
67	0x39e414ec	0.00043503137
68	0xbb6951cb	-0.003560173
69	0x3b28ccc6	0.002575682
70	0x3ab8daf8	0.0014103344
71	0x3bebbfdc	0.0071945023
72	0x3abcc39b	0.0014401557
73	0x3b4ccc73	0.003124979
74	0xb9cd5a89	-0.000391681
75	0xb91bd6dd	-0.00014861995
76	0x3b023be2	0.0019872119
77	0x3b6570c7	0.0035009847
78	0xba223b77	-0.00061886705
79	0x3b16045d	0.0022890784
80	0xba1f28dd	-0.0006071458
81	0xb99047dc	-0.0002751936
82	0x3b0c62e1	0.002142124
83	0x3b27cd4e	0.002560455
84	0x3a53cfce	0.00080799765
85	0x3aed6e36	0.001811451
86	0x3b45a6a4	0.003015914
87	0x3b6ce6c5	0.0036148292
88	0xbaa790b8	-0.0012784218
89	0x3b8fb8b8	0.004386034
90	0x3b441a0e	0.0029922756
91	0xbb82f80a	-0.0039968537
92	0x3adcfe4e	0.0016860457
93	0x3a50f85a	0.00079715776
94	0x39105a03	0.00013766442
95	0x3b8dbad6	0.004325251
96	0xb913c6c5	-0.0001409306
97	0x3a8a1ada	0.0010536567
98	0x3ab6c5ba	0.0013944425
99	0x3adcc286	0.001684264
100	0x3a4d2b47	0.0007826578
101	0x3b6657a8	0.0035147462
102	0xbaf81338	-0.0018926626
103	0x3b07c495	0.0020716537
104	0x3a569dfb	0.0008186993
105	0xba93dcf5	-0.001128106
106	0x3a827a5d	0.000995468
107	0x3b60b2d7	0.0034286284
108	0x3a515c6f	0.0007986491
109	0x3b14cc1d	0.0022704669
110	0xb98c5794	-0.00026768132
111	0x387f2232	6.0828585e-05
112	0xbb13fb3b	-0.0022580165
113	0xbb322bba	-0.0027186708
114	0x3b4d4880	0.003132373
115	0xb92692f6	-0.00015885741
116	0x383d0601	4.5066703e-05
117	0x39d425f8	0.0004046408
118	0xba92bf5a	-0.0011195943
119	0x3a197114	0.0005853337
120	0xbb0bdfce	-0.0021343115
121	0x3b247996	0.0025096885
122	0xb9d0e5e1	-0.00039844125
123	0x3a4807b8	0.0007630545
124	0x3b4d7da7	0.0031355412
125	0x3b748d46	0.003731565
126	0x3b939249	0.0045035225
127	0x3af28c7e	0.0018505005

backbone.cnn.2.running_mean f4 [128]
0	0x3b34d68a	0.0027593696
1	0x3c9a4216	0.01883034
2	0x3d6b7afe	0.05749034
3	0x3df10951	0.11769355
4	0x3c97102b	0.018440327
5	0x3dc32de1	0.09530235
6	0x3d98bc9a	0.07457848
7	0x3d41cde4	0.047315493
8	0x3bd53146	0.006506118
9	0x3c698bca	0.01425452
10	0x3c210f4a	0.009830305
11	0x3b9f09b7	0.004853453
12	0x3deaa6db	0.114576064
13	0x3c01b911	0.007917658
14	0x3c34a8d3	0.011026579
15	0x3db03e93	0.08605685
16	0x3c7f73de	0.01559159
17	0x3d01790c	0.03160958
18	0x3a84e43c	0.001013882
19	0x3cabbd8d	0.020964408
20	0x3bc3be78	0.0059736334
21	0x3ceb0afe	0.028691765
22	0x3ca5f27a	0.020257223
23	0x3cad373e	0.021144506
24	0x3d0b6bae	0.03403824
25	0x3dc55a13	0.09636321
26	0x3d226ad6	0.039652668
27	0x3dafb4ed	0.08579431
28	0x3c87f835	0.016597847
29	0x3d70c734	0.058783725
30	0x3bff274b	0.0077866665
31	0x3d5129c9	0.05106524
32	0x3d01be7c	0.0316758
33	0x3c8a7ec4	0.01690615
34	0x3c8017c0	0.015636325
35	0x3d60dc4b	0.054897588
36	0x3c0705af	0.008241101
37	0x3dbbae0a	0.09164055
38	0x3d8007f2	0.062515154
39	0x3d58f6ec	0.052969858
40	0x3c2a2f1f	0.010387211
41	0x3d89a57b	0.06721016
42	0x3be0e5ea	0.0068633454
43	0x3c683cce	0.014174653
44	0x3cdcd6e2	0.026957933
45	0x3d51afc2	0.051193006
46	0x3d1a08b9	0.037605975
47	0x3cfbe016	0.030746501
48	0x3d4af97e	0.04955434
49	0x3d22296b	0.03959028
50	0x3d3271f6	0.043565713
51	0x3d1c5388	0.0381656
52	0x3d4bd54e	0.04976397
53	0x3ca6edc8	0.020377055
54	0x3de5c38d	0.11218939
55	0x3c1f2070	0.009712324
56	0x3c29020e	0.010315431
57	0x3daba28b	0.08380612
58	0x3d58e66e	0.05295413
59	0x3ca1192e	0.019665327
60	0x3d8aa6ab	0.06770071
61	0x3d82ac0b	0.06380471
62	0x3defcceb	0.11709007
63	0x3de60e44	0.1123319
64	0x3d137c32	0.036007114
65	0x3c992e23	0.018698758
66	0x3d9994dc	0.07499096
67	0x3c9fafa3	0.01949293
68	0x3ce6bff9	0.028167712
69	0x3d840332	0.06445922
70	0x3b7ab91a	0.0038257302
71	0x3d41888e	0.04724937
72	0x3de6b554	0.11265054
73	0x3b6be5ab	0.0035995047
74	0x3b99a87d	0.004689275
75	0x3d794798	0.060859293
76	0x3dec0461	0.11524273
77	0x3baea167	0.0053292993
78	0x3d04aeac	0.032393143
79	0x3d5131dc	0.05107294
80	0x3d9b4765	0.07581977
81	0x3d8a9af0	0.06767833
82	0x3d148b17	0.03626546
83	0x3ce774f1	0.028254004
84	0x3d85146d	0.064980365
85	0x3bec78c1	0.0072165434
86	0x3c48bc20	0.012251884
87	0x3e08072a	0.13283983
88	0x3dbbb104	0.091646224
89	0x3d0cb925	0.034356255
90	0x3c1ecf01	0.009692908
91	0x3c485a70	0.012228593
92	0x3e10667b	0.14101593
93	0x3c67cfd7	0.014148674
94	0x3d0b0d81	0.033948425
95	0x3ce05d30	0.027388185
96	0x3d9facd5	0.07796637
97	0x3d0e85fb	0.034795742
98	0x3cbebd2a	0.02328356
99	0x3c418687	0.011811859
100	0x3be1d10d	0.006891376
101	0x3ba4cea3	0.005029516
102	0x3c01f4d9	0.007931911
103	0x3bcd8f59	0.006273192
104	0x3db4aafa	0.08821674
105	0x3d7fbd0e	0.062436156
106	0x3c57f2f6	0.013180485
107	0x3c33c8bc	0.010973152
108	0x3e0ccc81	0.13749887
109	0x3c5dc729	0.013536253
110	0x3d9128b5	0.070878424
111	0x3d8463e1	0.06464363
112	0x3a0a2542	0.0005269834
113	0x3d0247c5	0.031806726
114	0x3d4a2d67	0.049359705
115	0x3de8951d	0.11356566
116	0x3d1f87b4	0.038947776
117	0x3d622349	0.05520943
118	0x3dda3c16	0.10655992
119	0x3d096b2e	0.03354948
120	0x3cf2d7f6	0.029643994
121	0x3d202559	0.039098118
122	0x3d32b2b6	0.043627463
123	0x3da48b14	0.080343395
124	0x3d06a353	0.032870602
125	0x3da3e8d5	0.080033936
126	0x3dec85bd	0.11548946
127	0x3d5dfdce	0.054197125

backbone.cnn.2.running_var f4 [128]
0	0x39ba5b42	0.00035544677
1	0x3b3b0005	0.0028533947
2	0x3bd003fe	0.006348132
3	0x3c892d47	0.016745223
4	0x3b02d3cd	0.001996267
5	0x3c204dc0	0.009784162
6	0x3c2aa0cd	0.010414314
7	0x3b8619d1	0.004092433
8	0x3a193954	0.00058450294
9	0x3affa249	0.0019503321
10	0x3a9adc50	0.0011814926
11	0x3a0e2ef5	0.0005423867
12	0x3c3e7dc7	0.011626667
13	0x3a59fe81	0.0008315817
14	0x3aa57820	0.0012624301
15	0x3c3c8a18	0.0115075335
16	0x3b0e6d85	0.002173276
17	0x3b8aeb04	0.004239442
18	0x391a53f4	0.0001471786
19	0x3b33377d	0.0027346306
20	0x3a309505	0.0006736073
21	0x3b1dee23	0.002409824
22	0x3b462a3d	0.0030237578
23	0x3b51c320	0.0032007173
24	0x3b7f0729	0.003891418
25	0x3c952e58	0.018210575
26	0x3b9ee83c	0.004849462
27	0x3c0cb5ca	0.008588264
28	0x3b0239aa	0.0019870796
29	0x3bff0d96	0.007783602
30	0x3a4bfec5	0.0007781799
31	0x3b6b3026	0.0035886853
32	0x3b5cdcdf	0.0033700985
33	0x3b01ef3f	0.001982644
34	0x3b080663	0.002075576
35	0x3bf2e474	0.0074124876
36	0x3a594e14	0.00082895276
37	0x3c4eb331	0.012615965
38	0x3c2c83aa	0.010529438
39	0x3c071b34	0.008246232
40	0x3a907069	0.0011019829
41	0x3ba0e0e5	0.004909622
42	0x395c2ff3	0.00020998697
43	0x3afcb99c	0.001928139
44	0x3b68c794	0.0035519348
45	0x3c052535	0.008126547
46	0x3b1dabfb	0.0024058807
47	0x3b058d92	0.0020378572
48	0x3baca656	0.005268852
49	0x3bcc5e72	0.0062368447
50	0x3b8004ff	0.0039068456
51	0x3b77bc64	0.0037801499
52	0x3c122abf	0.008921324
53	0x3ace1b7b	0.0015724743
54	0x3c8461d1	0.016159924
55	0x3acc1edd	0.0015573163
56	0x3aa511df	0.0012593827
57	0x3c2e9a0c	0.010656845
58	0x3c0d3857	0.0086193895
59	0x3b6fd9e2	0.0036598374
60	0x3c541177	0.012943617
61	0x3b843540	0.004034668
62	0x3c59d1bf	0.013294636
63	0x3c1119ee	0.00885628
64	0x3bb1919c	0.0054189693
65	0x3b135050	0.002247829
66	0x3bbd5b2c	0.005778691
67	0x3b2b2573	0.002611485
68	0x3b28cb5c	0.0025755977
69	0x3c128c8c	0.008944642
70	0x39edf5bc	0.0004538725
71	0x3bd1a946	0.006398353
72	0x3c59091b	0.0132468
73	0x3a14cdf8	0.00056764437
74	0x3a1c1bb4	0.0005955056
75	0x3c6a0cb3	0.014285254
76	0x3cbb3ea7	0.022857023
77	0x39d6b6fe	0.000409536
78	0x3ba79f27	0.005115408
79	0x3c0f65e8	0.008752324
80	0x3bf9e45f	0.007626101
81	0x3c4490b0	0.011997387
82	0x3b909f47	0.0044135186
83	0x3b7cd9b4	0.003858191
84	0x3c3f95c8	0.0116934255
85	0x3a388e56	0.00070402527
86	0x3ac9386c	0.0015351898
87	0x3c88f6a0	0.016719162
88	0x3c231a2f	0.009954973
89	0x3b6aa01c	0.0035801
90	0x3aadf5ec	0.0013272143
91	0x3ae69d5c	0.0017594504
92	0x3cbd83ad	0.023134077
93	0x3b1b8842	0.002373234
94	0x3b4b95a4	0.0031064535
95	0x3b6b797b	0.0035930562
96	0x3bdd4a82	0.006753267
97	0x3bc33d4b	0.0059582344
98	0x3b5733fa	0.0032837377
99	0x3aab7289	0.0013080399
100	0x3a31fc2d	0.0006789591
101	0x3a0591a5	0.000509525
102	0x3a3711ff	0.00069835776
103	0x3a4b5494	0.00077564386
104	0x3c1e0f20	0.009647161
105	0x3c0fc0c2	0.008773984
106	0x3b07ec18	0.0020740088
107	0x3a968c7a	0.0011485957
108	0x3c84f728	0.016231135
109	0x3a854347	0.0010167145
110	0x3c530b72	0.012881147
111	0x3c27d238	0.010242991
112	0x382f78b7	4.1835676e-05
113	0x3b82ea8b	0.003995245
114	0x3c12c4be	0.00895804
115	0x3c23e0e2	0.010002347
116	0x3bc94d85	0.0061432743
117	0x3c0c0ecd	0.008548451
118	0x3c5d519b	0.013508226
119	0x3b54a4b1	0.0032446797
120	0x3ad30f8c	0.0016102656
121	0x3b6a8a71	0.0035788084
122	0x3bfffeb0	0.0078123435
123	0x3be88c04	0.0070967693
124	0x3b98d152	0.004663625
125	0x3bb8cfcf	0.005640007
126	0x3cd292a1	0.025704684
127	0x3c06f3a6	0.008236801

backbone.cnn.3.weight f4 [64, 128, 2, 3]
0	0xbd4aca6e	-0.04950946
1	0xbd0de8ca	-0.034645833
2	0xba0a9800	-0.0005286932
3	0x3cad7fc1	0.021179082
4	0xbd1ac572	-0.037785955
5	0x3c7c6b8d	0.0154065015
6	0x3d0b7f71	0.034057084
7	0xbcb8157d	-0.022471184
8	0xbd07f433	-0.03319187
9	0x3d11df31	0.035613243
10	0x3bde64fb	0.00678694
11	0xbc2484c9	-0.010041424
12	0x3d18af56	0.03727659
13	0x3c205b80	0.00978744
14	0x383063c3	4.205458e-05
15	0x3b1b7f91	0.0023727159
16	0x3c5482be	0.0129706245
17	0x3c0ab08c	0.008464944
18	0x3b25ffb0	0.0025329404
19	0x3c34385f	0.010999768
20	0x3c8e0920	0.017338336
21	0xbb8a1362	-0.0042137364
22	0x3ccc699c	0.024952702
23	0xbd0568ca	-0.032570638
24	0x3cb64e30	0.02225408
25	0xbbc3e980	-0.005978763
26	0x3bf387d5	0.007431964
27	0x3c59f417	0.013302824
28	0x3ccc0ca8	0.024908379
29	0x3c9a7f3b	0.018859496
30	0x3c54bfb8	0.012985162
31	0x3cb6cae4	0.022313543
32	0xbcbe6c27	-0.02324493
33	0xbc834083	-0.016021973
34	0xbc176dc0	-0.009242475
35	0x3ce9bd06	0.028532516
36	0x3b2f6766	0.002676451
37	0xbb07b76b	-0.002070869
38	0xbd0611bb	-0.032731753
39	0xbcef5ae7	-0.02921815
40	0x3d123346	0.03569343
41	0x3bec9bd6	0.0072207255
42	0x3bd8c461	0.006615207
43	0xbc0fc3dc	-0.008774724
44	0x3a734091	0.00092793355
45	0x3ca31474	0.019907214
46	0x3c7f157f	0.01556909
47	0xbc269994	-0.010168452
48	0x3c85f70e	0.016353156
49	0xbb1b64b7	-0.0023711154
50	0xbb2595fb	-0.0025266397
51	0xbc4858b6	-0.012228182
52	0x3d0ad525	0.033894677
53	0x3aea8d53	0.0017894901
54	0xbcd34307	-0.025788797
55	0x3d8897f8	0.06669611
56	0xbbc6ed92	-0.006070801
57	0x39a7f34b	0.0003203399
58	0xbcb49cc7	-0.022047414
59	0xbd00af44	-0.031417146
60	0x3c9b0881	0.018924953
61	0x3a64c18d	0.0008726351
62	0xbcedca8b	-0.029027244
63	0xbbcb7b91	-0.0062097986
64	0xbcf4fddc	-0.029906206
65	0x3cca3d69	0.024687486
66	0x3d031323	0.032000672
67	0xbcf92bff	-0.030416487
68	0xbc4aae49	-0.012370654
69	0x3d18b4c8	0.03728178
70	0x3ce6c517	0.028170152
71	0x3b17a0b1	0.002313655
72	0x3c414f95	0.011798759
73	0xbc00c5fd	-0.007859704
74	0xbca50ca3	-0.020147627
75	0xbc621701	-0.01379943
76	0xbc814cbd	-0.015783662
77	0x3c4866f8	0.012231581
78	0xbb2a7722	-0.002601095
79	0xbc88e4de	-0.016710695
80	0xba1d85b6	-0.0006008999
81	0xbc5ad2a3	-0.013355884
82	0xbaed0c93	-0.0018085412
83	0xbcc85eab	-0.024459204
84	0xbd65a6e9	-0.05606738
85	0x3c67ab6c	0.014139991
86	0xbce3b2a8	-0.02779515
87	0xbc143e0e	-0.009047998
88	0x3c6c38a7	0.014417804
89	0xbc490e1f	-0.012271433
90	0xbd0771bd	-0.033067454
91	0x3cea9ba6	0.028638672
92	0x3b940cb9	0.004518118
93	0x3ca7353b	0.020411124
94	0xbd049f0b	-0.032378238
95	0x3cf2e38c	0.029649518
96	0x3c9843a5	0.018586943
97	0xbc1aebea	-0.00945566
98	0xbd1ec216	-0.038759314
99	0xbd100ee8	-0.035170466
100	0xbd02cae0	-0.031931758
101	0x3d01cd9a	0.031690218
102	0x3cec23ac	0.028825603
103	0xbcb6666f	-0.022265641
104	0xbc62c9b7	-0.013842038
105	0xbb9d3529	-0.004797597
106	0xbcc177ef	-0.02361676
107	0xbce78b55	-0.02826468
108	0xbcb371af	-0.021904794
109	0x3c520dbe	0.012820659
110	0xbc812b03	-0.01576758
111	0x3c2763e9	0.0102166915
112	0xbbabcf50	-0.0052432194
113	0x3c67e71e	0.014154224
114	0xbd0bdc1c	-0.03414546
115	0xbd2afcf6	-0.04174515
116	0x3b098cca	0.0020988458
117	0xbcae2087	-0.021255745
118	0x3cf99be6	0.030469846
119	0x3be375a9	0.0069415164
120	0xbcf1e82b	-0.029529652
121	0xbb946302	-0.004528404
122	0x3ba28860	0.004960105
123	0x3b1bb876	0.002376107
124	0xbcdd9fad	-0.027053678
125	0x3b44d74d	0.0030035556
126	0x3bb1dbae	0.005427799
127	0xba8423fc	-0.0010081525
128	0xbb25c39a	-0.002529359
129	0x3b957606	0.0045611886
130	0x3cefd10d	0.029274488
131	0x3c512456	0.012765011
132	0x3cfe5e2d	0.031050766
133	0x3cee9390	0.029123098
134	0xbd33d98d	-0.043908644
135	0x3cecf2e6	0.028924417
136	0xbb63f664	-0.0034784311
137	0x3caa5f7d	0.020797485
138	0xbc942bb8	-0.018087253
139	0x3c2acb30	0.01042442
140	0x3cd1963f	0.025584338
141	0x3ae0513d	0.0017114055
142	0xbc99e515	-0.018785993
143	0x3d10ce81	0.035353187
144	0x3bf88553	0.007584253
145	0x3cdf6824	0.027271338
146	0x3c928655	0.01788632
147	0xbbf0ef56	-0.00735275
148	0xbc751b0f	-0.014960065
149	0x3b9d8593	0.004807183
150	0x3ceaf62c	0.028681837
151	0x3ce3718b	0.027764102
152	0x3cd5e53a	0.02611028
153	0x3cb0e3ac	0.021592937
154	0x3c04f161	0.00811419
155	0xbc005c36	-0.007834485
156	0xbc109439	-0.008824402
157	0x3ca368fa	0.019947518
158	0xbce5119e	-0.027962502
159	0xbd00c265	-0.03143539
160	0xbd0a70ac	-0.03379886
161	0x3d02b6d2	0.031912632
162	0xbc2bdfa9	-0.010490336
163	0xbc9de2cc	-0.019273184
164	0xbca9746f	-0.020685403
165	0xbba3dd48	-0.005000744
166	0x3c101e4e	0.008796288
167	0x3c821a77	0.01588176
168	0xbce0fab3	-0.027463293
169	0x3c70e655	0.014703353
170	0xbcda1a33	-0.02662382
171	0xbc19aca1	-0.009379537
172	0x3c60f2ba	0.0137297455
173	0x3c28fe27	0.010314501
174	0x3ad9a37c	0.0016604508
175	0x3cf92a08	0.03041555
176	0xbccff797	-0.025386615
177	0xbcfaba1f	-0.030606328
178	0x3c43e807	0.011957175
179	0x3cdd89b3	0.0270432
180	0x3d1c87d5	0.038215477
181	0xbc826a3c	-0.015919797
182	0xbd209ce3	-0.03921212
183	0x3c71ed45	0.014766042
184	0xbbec7d63	-0.0072170957
185	0xbd1bbe88	-0.0380235
186	0x3ba48395	0.0050205686
187	0x3c558fcf	0.013034775
188	0x3c4ee571	0.012627945
189	0x3c179355	0.009251435
190	0xbb248df5	-0.0025109027
191	0x3c99bff5	0.01876829
192	0xbd1788eb	-0.03699581
193	0xbb611683	-0.0034345693
194	0xbcaf70d8	-0.021416113
195	0xbc73f3f5	-0.014889707
196	0xbd095381	-0.0335269
197	0x3ca34e2f	0.019934742
198	0xbd15c7d5	-0.036567528
199	0x3c6923e5	0.014229749
200	0xbd23bba6	-0.039973877
201	0x3d1afa54	0.037836388
202	0xbd168832	-0.03675098
203	0xbc009e97	-0.007850311
204	0x3b9d210c	0.0047951993
205	0x3cb94dbe	0.022620078
206	0xbcccc9ec	-0.024998628
207	0x3cfe2625	0.031024048
208	0x3bef3ab2	0.007300698
209	0xbd1af421	-0.037830476
210	0x3bf56dd8	0.007489901
211	0x3c25f798	0.010129832
212	0x3b9d9f34	0.0048102383
213	0xbd0bf640	-0.03417039
214	0xbd19498e	-0.037423663
215	0x3c38b2b3	0.011273074
216	0xbc53117e	-0.012882588
217	0xbcc7ed62	-0.024405185
218	0xbb4e3542	-0.003146485
219	0xbb2282f6	-0.0024797297
220	0xbbcb3859	-0.0062017855
221	0x3bc950af	0.0061436514
222	0xbc9668da	-0.018360544
223	0xbd177591	-0.036977354
224	0x3d027bea	0.031856455
225	0x3c51c007	0.012802131
226	0x3c80be5c	0.01571577
227	0x3d035ca0	0.032070756
228	0xbd27314b	-0.040818494
229	0x3d0dc4fe	0.034611695
230	0xbc242989	-0.010019668
231	0xbc592c0b	-0.01325513
232	0xbcc07a7c	-0.023495905
233	0xbbad64fb	-0.005291579
234	0xbca5ae09	-0.020224588
235	0x3be8b0ea	0.007101168
236	0xbc83ded9	-0.016097473
237	0x3ba18db7	0.004930224
238	0xbcba48ae	-0.022739735
239	0xbc4d3fc7	-0.012527413
240	0x3a5dc0f2	0.0008459232
241	0xbcb513ec	-0.022104226
242	0x3d0d8324	0.034548894
243	0xbbadcc6e	-0.005303911
244	0xbd1f9d02	-0.038968094
245	0x3c961b9f	0.018323718
246	0x3d05d001	0.03266907
247	0xbbc2ff8a	-0.005950873
248	0xbc6aef5f	-0.014339297
249	0xbcf8514a	-0.0303122
250	0xbc6148d8	-0.013750277
251	0xbc8da5cc	-0.017290972
252	0x3cb2e34a	0.021836895
253	0xbcb6f058	-0.022331402
254	0xbb0bf363	-0.0021354787
255	0xbca158a4	-0.019695587

backbone.cnn.3.bias f4 [64]
0	0xbc1203a6	-0.008912003
1	0x3ce95b04	0.028485782
2	0x3c7bee8b	0.015376697
3	0xbcb1b321	-0.02169186
4	0x3c685b81	0.0141819725
5	0xbd0c40b1	-0.034241382
6	0xbc9a0539	-0.018801318
7	0xbcd48cbb	-0.025946012
8	0xbc069c12	-0.008215921
9	0x3c0220a9	0.007942357
10	0xbd3d23bd	-0.04617666
11	0x3ceebd38	0.02914296
12	0xbc4dc0d1	-0.012558178
13	0x3c574388	0.013138659
14	0xbbc307f8	-0.0059518777
15	0xbceb08a7	-0.02869065
16	0xbbaa370b	-0.00519455
17	0xbb621653	-0.003449817
18	0xbc7e3e0b	-0.015517722
19	0xbd03d36d	-0.032184053
20	0xbc0935a3	-0.008374604
21	0x3c993739	0.01870309
22	0xbd0c6488	-0.03427556
23	0xbcf87cd7	-0.030332966
24	0x3cac1035	0.021003822
25	0xbd2c2537	-0.04202768
26	0x3a7c06a7	0.00096140284
27	0xbc861b94	-0.016370572
28	0x3ca40553	0.02002207
29	0x3c7712fc	0.01508021
30	0xbd0a2173	-0.033723306
31	0x3cbe065f	0.023196397
32	0x3bfcfba7	0.007720429
33	0x3cb3200c	0.021865867
34	0xbcc61e24	-0.024184294
35	0xbcb1d69d	-0.02170878
36	0xbbbb2ff0	-0.0057125017
37	0x3c2e8344	0.010651413
38	0x3c8586e8	0.01629968
39	0xbbd3919e	-0.006456568
40	0xbcc58e89	-0.024115818
41	0xbcc69587	-0.024241222
42	0xbc6b3baa	-0.014357487
43	0xbcfd54c9	-0.030924218
44	0x3bd4c6c3	0.006493421
45	0xbbfbaa5a	-0.0076802196
46	0xbc91f93a	-0.017819036
47	0x3c781589	0.015141853
48	0x3cbc8037	0.023010356
49	0x3c5c3465	0.013440226
50	0xbd30285d	-0.043007243
51	0xbb242958	-0.0025049057
52	0x3cd98e08	0.026556984
53	0xbd1f71cb	-0.03892688
54	0xbcc5c2f1	-0.024140807
55	0xbc3a354b	-0.011365245
56	0xbcf98516	-0.030458968
57	0xbc117695	-0.00887837
58	0xbd15f9a7	-0.03661504
59	0xbd01b22a	-0.03166405
60	0x3d2b841b	0.041874032
61	0xbd198c8f	-0.037487563
62	0xbc26bb35	-0.01017647
63	0xbd08bcb1	-0.033383075

backbone.cnn.6.weight f4 [64]
0	0x3f8040b3	1.0019745
1	0x3f803664	1.0016599
2	0x3f804b42	1.0022967
3	0x3f7e9c87	0.9945759
4	0x3f7ee3e0	0.9956646
5	0x3f7fedd7	0.9997229
6	0x3f7e8eaf	0.9943647
7	0x3f7f89f8	0.998199
8	0x3f7eb1d0	0.9949007
9	0x3f7f9a08	0.9984441
10	0x3f805e01	1.0028688
11	0x3f7fcd93	0.99923056
12	0x3f7f15fe	0.9964293
13	0x3f7fa9e0	0.99868584
14	0x3f7fbb28	0.9989495
15	0x3f7e9851	0.99451166
16	0x3f80355c	1.0016284
17	0x3f80402f	1.0019587
18	0x3f806426	1.0030563
19	0x3f80b872	1.0056288
20	0x3f7fb816	0.9989027
21	0x3f804bf2	1.0023177
22	0x3f803829	1.0017139
23	0x3f7fc564	0.9991057
24	0x3f7fcfba	0.9992634
25	0x3f7f5db7	0.9975237
26	0x3f7ff018	0.9997573
27	0x3f802dc5	1.0013968
28	0x3f805e2c	1.0028739
29	0x3f80e077	1.0068501
30	0x3f7edaf0	0.9955282
31	0x3f803dbd	1.0018841
32	0x3f804385	1.0020605
33	0x3f802777	1.0012044
34	0x3f80148b	1.0006269
35	0x3f809b62	1.0047419
36	0x3f803c09	1.0018321
37	0x3f806be6	1.0032928
38	0x3f801d74	1.0008988
39	0x3f7f3380	0.9968796
40	0x3f8023bc	1.0010905
41	0x3f8111f5	1.0083605
42	0x3f7f433c	0.99711967
43	0x3f7fa154	0.9985554
44	0x3f7f58fb	0.9974515
45	0x3f802809	1.0012218
46	0x3f7f6d55	0.997762
47	0x3f7fffcd	0.99999696
48	0x3f80156e	1.000654
49	0x3f7ed17b	0.9953839
50	0x3f804ed2	1.0024054
51	0x3f80cfc1	1.0063401
52	0x3f805885	1.0027014
53	0x3f7fa841	0.9986611
54	0x3f8013da	1.0006058
55	0x3f7f080d	0.9962166
56	0x3f7fd24b	0.99930257
57	0x3f7da6b6	0.99082506
58	0x3f80641c	1.0030551
59	0x3f7f4ef9	0.9972988
60	0x3f7efc43	0.9960367
61	0x3f7f14e1	0.99641234
62	0x3f805985	1.0027319
63	0x3f80c6ad	1.0060631

backbone.cnn.6.bias f4 [64]
0	0x38a0b095	7.6622855e-05
1	0x3aedac3e	0.0018132997
2	0x3acf877a	0.0015833222
3	0x3a2484bd	0.0006275883
4	0x3823b745	3.903291e-05
5	0x3b0409b3	0.0020147383
6	0x393b3f09	0.00017857192
7	0xb7289115	-1.004736e-05
8	0x39dd638d	0.00042226576
9	0xba12fee5	-0.000560744
10	0x3b11a3fb	0.0022222984
11	0xbb0569fa	-0.0020357356
12	0x3a12b39a	0.0005596221
13	0x3a00fcc2	0.00049204763
14	0xbaffd13b	-0.0019517312
15	0xb780e04d	-1.5363237e-05
16	0x3afa0259	0.0019074186
17	0x3a94de35	0.0011357727
18	0x3a31d4b2	0.0006783708
19	0x3a2352dc	0.00062303036
20	0x3ae533e1	0.0017486775
21	0x3b3c09ee	0.0028692442
22	0x3b222dfc	0.0024746647
23	0x3a84657c	0.0010101045
24	0xbb236257	-0.0024930441
25	0x39f1f794	0.00046151562
26	0x3b14966c	0.0022672666
27	0x3a9dc52b	0.001203691
28	0x3ac90093	0.0015335254
29	0xba9d29a0	-0.0011990555
30	0xbaf0402e	-0.0018329674
31	0xbaabe5cb	-0.0013114748
32	0x3a157345	0.00057010754
33	0xba1e07b1	-0.0006028368
34	0xbb5a467a	-0.0033306167
35	0x3ab9c99c	0.0014174464
36	0x3a96cbf4	0.0011504875
37	0x39a70832	0.00031858828
38	0xb8ae38b8	-8.307531e-05
39	0xba98cf29	-0.0011658418
40	0x3aeb7f92	0.0017967096
41	0xb9c9ce27	-0.00038491303
42	0x388de533	6.7660956e-05
43	0xba36fe19	-0.00069806125
44	0xba6444e7	-0.0008707777
45	0x39a92d01	0.00032267722
46	0xba9c3d35	-0.0011920097
47	0xba25e010	-0.00063276384
48	0x3a9a679f	0.0011780149
49	0x3b5d2550	0.0033744164
50	0x3a8e61fd	0.0010862943
51	0x3b1e3802	0.002414227
52	0xba0ff0f1	-0.000549092
53	0x39f892ee	0.00047411717
54	0x3a3f8ea7	0.00073073286
55	0xba406334	-0.0007339001
56	0x39cb3040	0.00038755126
57	0xbb3d2cd1	-0.0028865824
58	0x3b21f4c7	0.002471255
59	0xba4af2a7	-0.00077418465
60	0x3a4c43c4	0.000779208
61	0xba9a34e7	-0.0011765034
62	0xba26b767	-0.00063597265
63	0x3b534427	0.0032236667

backbone.cnn.6.running_mean f4 [64]
0	0x3dce24d3	0.100656174
1	0x3e76f4a5	0.24116762
2	0x3e6fafab	0.23406856
3	0x3e66ca66	0.22538146
4	0x3e4c1e26	0.19933376
5	0x3e12681b	0.14297526
6	0x3e17db89	0.1482984
7	0x3dfd2011	0.12359632
8	0x3dd6840e	0.10474406
9	0x3e4db7da	0.20089665
10	0x3df30308	0.118658125
11	0x3e619f1e	0.22033355
12	0x3e3fffa2	0.1874986
13	0x3e841695	0.2579848
14	0x3e24df08	0.16100705
15	0x3dfe0f1c	0.12405226
16	0x3dde192f	0.10844647
17	0x3dcd6ee6	0.10030918
18	0x3e177943	0.14792351
19	0x3d89ff95	0.067382015
20	0x3e861aff	0.2619247
21	0x3e41bdd1	0.18920065
22	0x3cf06c46	0.029348504
23	0x3d835918	0.06413478
24	0x3e9c0344	0.3047124
25	0x3d83c572	0.06434144
26	0x3e1fe33d	0.15614028
27	0x3e3ca07f	0.184206
28	0x3e03a32f	0.12855218
29	0x3e6a8080	0.22900581
30	0x3e120905	0.14261253
31	0x3e0eed12	0.13957623
32	0x3e0a363f	0.13497256
33	0x3e9c7c7e	0.3056373
34	0x3e00cbc4	0.1257773
35	0x3dffa7e1	0.12483192
36	0x3e5f0435	0.21778949
37	0x3e1c2891	0.1524985
38	0x3e26ab28	0.16276228
39	0x3e78f25a	0.243112
40	0x3e231f1e	0.15929839
41	0x3e3b6267	0.18299256
42	0x3de169dd	0.1100652
43	0x3e4ad131	0.19806363
44	0x3e2ae7f0	0.1669004
45	0x3de977db	0.11399814
46	0x3e839336	0.2569825
47	0x3e7b35cd	0.24532242
48	0x3e259b2b	0.16172473
49	0x3e1d1d8d	0.15343304
50	0x3decc7a4	0.11561516
51	0x3e2b26f6	0.16714081
52	0x3e95baf6	0.29244202
53	0x3e2f092f	0.17093347
54	0x3e88b1a4	0.2669803
55	0x3e4636a5	0.19356783
56	0x3e3e7624	0.18599755
57	0x3dff332f	0.12460934
58	0x3e23d7d2	0.16000298
59	0x3db7ee87	0.08981042
60	0x3e80025a	0.25001794
61	0x3dd820e2	0.10553147
62	0x3e47c37c	0.19508165
63	0x3e1547eb	0.14578216

backbone.cnn.6.running_var f4 [64]
0	0x3e28f529	0.16499771
1	0x3ec607e4	0.38677895
2	0x3eb5e886	0.35528964
3	0x3eec78b7	0.46185848
4	0x3ed696da	0.41911966
5	0x3ea56d67	0.3231003
6	0x3ea060f7	0.31323978
7	0x3e8b74bb	0.27237496
8	0x3efeac2b	0.4974073
9	0x3ea2ea85	0.3181955
10	0x3e47073b	0.19436352
11	0x3f2e6814	0.6812756
12	0x3ebd4a00	0.3697052
13	0x3ef31d41	0.47483256
14	0x3e8e964f	0.2784905
15	0x3e855a41	0.2604542
16	0x3e463250	0.1935513
17	0x3e69c6e5	0.22829778
18	0x3e5d1399	0.21589507
19	0x3e1df29c	0.1542458
20	0x3f368d79	0.7130962
21	0x3e848713	0.25884303
22	0x3e6e2f11	0.23260142
23	0x3e200a27	0.15628873
24	0x3f0528f5	0.5201562
25	0x3e4fe5d3	0.20302515
26	0x3e993808	0.2992556
27	0x3ec176a6	0.37785834
28	0x3e8a7a63	0.270465
29	0x3ea285d6	0.31742734
30	0x3e932930	0.2874236
31	0x3e9d6a6e	0.30745262
32	0x3e908130	0.28223562
33	0x3f51b3bb	0.8191487
34	0x3e643fda	0.22289982
35	0x3e35141a	0.1768345
36	0x3ec386b0	0.38188696
37	0x3e8b5414	0.27212584
38	0x3ea28d70	0.31748533
39	0x3f2b1bff	0.66839594
40	0x3e8c09ae	0.27351135
41	0x3e92510f	0.28577468
42	0x3e571e60	0.21007681
43	0x3efd0464	0.49417412
44	0x3e7c6875	0.24649222
45	0x3e2e53ae	0.17024109
46	0x3efd9329	0.49526337
47	0x3f1e5829	0.6185327
48	0x3eb835d0	0.35978556
49	0x3e9cd642	0.30632216
50	0x3e84ff4f	0.25976035
51	0x3e89dc37	0.26925823
52	0x3edd44f1	0.4321666
53	0x3e94068e	0.2891125
54	0x3ed34f4d	0.4127144
55	0x3eaa165d	0.33220187
56	0x3ef253c2	0.47329527
57	0x3f39f8e8	0.72645426
58	0x3ea8fb8d	0.33004418
59	0x3ed605e2	0.41801363
60	0x3f31216a	0.6919161
61	0x3e622ef7	0.22088228
62	0x3e950a7b	0.29109558
63	0x3e6814e5	0.2266422

backbone.cnn.7.weight f4 [128, 64, 2, 3]
0	0x3d17feb6	0.037108146
1	0x3ca74f48	0.020423546
2	0xbcd8af36	-0.026450735
3	0x3c91575d	0.017741853
4	0x3d222c47	0.039593007
5	0x3c9a19b1	0.018811079
6	0xbc9b8a11	-0.018986734
7	0x3c817079	0.015800701
8	0xbd06b5af	-0.03288811
9	0x3b7e343e	0.0038788463
10	0xbcdef11a	-0.027214576
11	0x3d1c3111	0.03813273
12	0xbd03d862	-0.03218878
13	0xbd1fd5ab	-0.03902213
14	0x3c878cc4	0.016546614
15	0xbcbaaf66	-0.022788715
16	0x3d096514	0.03354366
17	0xbc685bdf	-0.01418206
18	0x3d01592f	0.031579193
19	0x3d55858a	0.052129306
20	0xbd230e3b	-0.039808493
21	0x3d4c71ce	0.04991322
22	0x3b8d55fb	0.004313228
23	0x3cd60337	0.02612458
24	0x3c9a7e6b	0.018859109
25	0x3c323708	0.010877378
26	0xbb9cd871	-0.004786544
27	0x3d018c77	0.0316281
28	0xbca24b80	-0.019811392
29	0x3c8ce4cd	0.017198944
30	0xbc0e5cd2	-0.008689122
31	0xbaa86324	-0.0012846929
32	0x3cc2c628	0.023776129
33	0xbd3a6c03	-0.045513164
34	0xbba7c35e	-0.005119725
35	0xbd3dc1a0	-0.046327233
36	0x3cef1973	0.02918694
37	0xbc3d423f	-0.011551439
38	0x3c1e4062	0.009658905
39	0x3d444fe6	0.04792776
40	0xbc87419f	-0.016510783
41	0xbd29410d	-0.041321803
42	0x3d40346c	0.046924993
43	0x3d0bcee6	0.03413286
44	0x3b5e1bb9	0.0033891036
45	0xbd13e4f9	-0.036107037
46	0xb989f161	-0.00026310518
47	0x3d1130ea	0.03544704
48	0x3cf83c30	0.030302137
49	0x3cb20e77	0.021735413
50	0xbd0b46a2	-0.034002908
51	0x3d14c146	0.036317132
52	0x3d2490d6	0.04017719
53	0x3c8ff5a2	0.017573182
54	0x3c6c34d5	0.014416893
55	0xbcc16f5e	-0.023612674
56	0xbcd5fa26	-0.026120257
57	0xbd269fab	-0.040679615
58	0xba917c39	-0.0011099643
59	0x3d1872c2	0.037218817
60	0x3c1651a6	0.00917474
61	0xbd196ec8	-0.037459165
62	0x3cf3071d	0.029666478
63	0xbd1b5f5c	-0.03793274
64	0x3bd5a2a2	0.0065196315
65	0x3cc3d9cb	0.023907563
66	0x3c5dd165	0.013538693
67	0x3cdc55ea	0.026896436
68	0xbd4eb9d2	-0.05047018
69	0x3d22f683	0.039785873
70	0xbd3b426d	-0.045717645
71	0x3cc1495e	0.023594555
72	0x3bf45ec4	0.007457586
73	0xbd18b910	-0.037285864
74	0x3d1670d4	0.036728695
75	0xbd259392	-0.040423937
76	0x3d338913	0.043831896
77	0xbd2bddf0	-0.041959703
78	0xb8b925bc	-8.828516e-05
79	0xbd1ea799	-0.038734052
80	0x3d507bad	0.050899196
81	0x3b3d742d	0.0028908357
82	0xbd07ecab	-0.03318469
83	0x3c82b1e2	0.015953962
84	0xbce2f7c7	-0.02770604
85	0xbd25fd95	-0.040525038
86	0xbc54b78c	-0.012983214
87	0xbbb9e59f	-0.005673125
88	0x3c96aa2f	0.018391697
89	0xbc9a7b8b	-0.018857738
90	0x3c1b78c2	0.00948924
91	0xbcb6015b	-0.022217443
92	0x3c15607a	0.00911724
93	0xbcb2bf24	-0.021819659
94	0xbbcfb799	-0.006339025
95	0xbb665860	-0.003514789
96	0x3d03aeca	0.032149114
97	0xbcba6ac5	-0.02275599
98	0xba18498a	-0.0005809298
99	0x3cecf6cb	0.028926274
100	0xbcf23c1f	-0.029569684
101	0x3c24537e	0.010029672
102	0x3ca84c0f	0.02054408
103	0xbc990ad9	-0.01868193
104	0xbd1dd1eb	-0.03853027
105	0x3caeae24	0.021323271
106	0x3d05238a	0.032504596
107	0x37e30843	2.7064356e-05
108	0xbc5480e6	-0.012970185
109	0xbcb0801e	-0.021545466
110	0x3c4f7435	0.012661983
111	0xbd378f30	-0.04481429
112	0x3d031ac0	0.032007933
113	0x3cef8db4	0.029242374
114	0x3ba0beb9	0.0049055484
115	0x3cacea0a	0.021107692
116	0xbd4a9d19	-0.049466226
117	0xbd2133bc	-0.03935598
118	0xbd0f20a7	-0.03494325
119	0xbd5479f8	-0.05187413
120	0x3ce2c65e	0.02768248
121	0x3c749e8a	0.014930377
122	0xbc6ccd56	-0.014453253
123	0xbd2397c1	-0.039939646
124	0xbd447d2a	-0.04797093
125	0x3d4e8b1b	0.05042563
126	0xbcab9da3	-0.02094919
127	0xbc1eed4c	-0.009700131
128	0xbc034970	-0.008013114
129	0xbc07ae99	-0.008281373
130	0x3d28a1ce	0.041169934
131	0xbcea8d0b	-0.028631708
132	0x3c9f9298	0.019479081
133	0xbc8d142c	-0.017221533
134	0x3d61b346	0.05510261
135	0x3cdd01d2	0.026978407
136	0xbd2fb299	-0.042894933
137	0xbc9733b2	-0.018457267
138	0xbd5705c0	-0.052495718
139	0xbc0ed6f8	-0.008718245
140	0xbaecde71	-0.0018071664
141	0x3d15daf2	0.036585756
142	0x3d41a0f9	0.047272656
143	0x3c9428e8	0.018085912
144	0xbd31ca58	-0.04340586
145	0x3c985319	0.018594312
146	0x3d280a11	0.041025225
147	0xbcca9423	-0.02472884
148	0xbd202774	-0.039100125
149	0xbd569b7f	-0.052394386
150	0x3cfa288c	0.030536912
151	0xbd291525	-0.04127993
152	0xbc635f8b	-0.01387776
153	0x3d3faa4d	0.04679327
154	0x3ce01064	0.027351566
155	0xbd41093a	-0.04712794
156	0x3d13b5e9	0.036062155
157	0x3d3736a7	0.044729855
158	0x3cb6abe7	0.022298766
159	0xbcd2f2f8	-0.025750622
160	0x3c4588cf	0.0120565435
161	0x3d25c909	0.040474925
162	0x3d123aa6	0.035700463
163	0xbd0bf233	-0.034166526
164	0x3c988394	0.018617429
165	0x3c98cb87	0.018651737
166	0x3d4a6b73	0.049418878
167	0x3d045d14	0.03231533
168	0x3d4a093a	0.049325205
169	0xbcdedeb8	-0.02720581
170	0x3d007e58	0.03137049
171	0xbced86a9	-0.028994875
172	0xbd30bd48	-0.043149263
173	0xbd23d6a6	-0.039999627
174	0xbd3ded7d	-0.046369065
175	0x3b946225	0.0045283013
176	0x3d47206e	0.04861491
177	0x3d4857dd	0.048911918
178	0xbd46cedf	-0.04853713
179	0x3d310fc7	0.043227937
180	0x3d293930	0.041314304
181	0x3d40cd6f	0.047070917
182	0x3d1b956c	0.037984297
183	0x3d4e58b8	0.050377578
184	0xbc6b1eb7	-0.014350585
185	0x3c7ee9d2	0.015558677
186	0xbba1f70b	-0.00494278
187	0xbcaa5121	-0.020790638
188	0xbbfeb920	-0.0077735335
189	0xbd2914ea	-0.04127971
190	0xbcb0f18d	-0.021599555
191	0xbc3d2f9c	-0.0115469955
192	0x3c991feb	0.018691977
193	0xbc54c12c	-0.012985509
194	0xbd39eda4	-0.045392647
195	0xbc1c7683	-0.00954974
196	0x3cc12bb8	0.023580417
197	0x3a6405d0	0.0008698376
198	0xbcadf4ed	-0.021234954
199	0x3cbc34b0	0.022974342
200	0xbd3606b0	-0.04443997
201	0xbd2999e6	-0.041406535
202	0xbd47e0fc	-0.048798546
203	0x3c81ac7b	0.015829315
204	0x3d3236ac	0.04350917
205	0xbd582f9b	-0.052779775
206	0x3c701307	0.014652974
207	0xbcfdca15	-0.03098015
208	0x3c5069a4	0.012720499
209	0xbd31227f	-0.04324579
210	0x3d4300c8	0.047608167
211	0x3c88767c	0.01665806
212	0x3d546c67	0.051861193
213	0x3d3a3712	0.045462675
214	0xbb67bf8a	-0.003536197
215	0xbb7fb231	-0.0039016122
216	0xbc1e3d4f	-0.009658172
217	0xbce9e019	-0.02854924
218	0xbcc2cc23	-0.02377898
219	0xbc9d741c	-0.019220404
220	0xbba19c95	-0.004931996
221	0x3d247165	0.040147204
222	0xbc3afaf4	-0.011412371
223	0xbcc2ee86	-0.023795377
224	0xbca91991	-0.020642074
225	0x3c135088	0.008991368
226	0x3b3f0100	0.0029144883
227	0xbc731425	-0.014836346
228	0xbd342369	-0.043979082
229	0xbc5d2611	-0.013497845
230	0x3d5a97b8	0.053367347
231	0x3d1b2be2	0.037883647
232	0xbc05c2c4	-0.0081641115
233	0x3ccb6a79	0.024831044
234	0x3c585e21	0.013206036
235	0xbd064d08	-0.032788306
236	0x3c7c285e	0.015390484
237	0xba8d11fd	-0.0010762807
238	0xbca8a7c3	-0.020587808
239	0xbd345e99	-0.044035528
240	0xbc1ed8a7	-0.009695209
241	0xbb9c5c9f	-0.0047717835
242	0x3cd54e80	0.026038408
243	0x3d0fb0b5	0.03508063
244	0xbc870f62	-0.016486827
245	0xbb8547e4	-0.004067408
246	0x3b9e563e	0.004832058
247	0x3cc2cf5e	0.023780521
248	0x3d3aff40	0.04565358
249	0x3d359d87	0.044339683
250	0x3d10d1d8	0.035356373
251	0xbcc32e62	-0.023825828
252	0x3c538937	0.012911133
253	0xbc188732	-0.009309577
254	0xbd2488e2	-0.040169604
255	0x3ce5e12d	0.028061474

backbone.cnn.7.bias f4 [128]
0	0xbce29e4e	-0.027663376
1	0x3cf4e223	0.029892987
2	0xbd251a5b	-0.040308338
3	0x3d2cd678	0.04219672
4	0xbc367637	-0.011136583
5	0xbc55bd16	-0.01304557
6	0xbc2907b1	-0.010316775
7	0x3bd70453	0.006561795
8	0xbcfbf79a	-0.030757714
9	0x3c2331cf	0.009960606
10	0xbd3745db	-0.044744354
11	0x3aa68555	0.0012704531
12	0xbb574ef0	-0.0032853447
13	0x3d28aed7	0.041182365
14	0xbc85ea79	-0.016347157
15	0xbc9b012d	-0.01892146
16	0xbc843fa0	-0.01614362
17	0x3c00460a	0.007829199
18	0xbc71abc9	-0.014750429
19	0xbcd843e4	-0.02639956
20	0x3d1d0f87	0.038344886
21	0xbcf3e8e4	-0.029774137
22	0x3ca571bf	0.02019584
23	0x3ad1023b	0.0015946099
24	0x3d3eb648	0.046560556
25	0x3b1f9fea	0.002435679
26	0xbc6a242a	-0.014290849
27	0xbb8bc6d0	-0.0042656437
28	0xbd493741	-0.04912496
29	0xbd472bdf	-0.048625823
30	0x3c96e902	0.018421654
31	0x3d175699	0.03694782
32	0xbc2a932f	-0.010411068
33	0xbca04665	-0.019564817
34	0x3d18d7dd	0.03731524
35	0xbc081280	-0.008305192
36	0x3ccbae06	0.024863254
37	0xbcf5329a	-0.029931355
38	0x3d4d1395	0.050067503
39	0x3d2f9835	0.042869765
40	0x3c1a4237	0.009415201
41	0xbc248037	-0.010040334
42	0x3b2761a2	0.0025540371
43	0xbca1ffa6	-0.019775223
44	0xbd21e79b	-0.039527517
45	0x3c75cdc3	0.015002671
46	0x3c8cd06d	0.017189229
47	0x3a63ca9e	0.0008689555
48	0xbd341bda	-0.043971874
49	0x3d43ccce	0.04780274
50	0x3d4860c2	0.0489204
51	0xbd31aeb2	-0.043379493
52	0xbd2c83d8	-0.042117923
53	0xbc560ec3	-0.013065043
54	0xbcaf8663	-0.021426385
55	0x3bd17f53	0.006393352
56	0xbd018ebb	-0.03163026
57	0x3c7d5e9e	0.015464453
58	0x3b2ab11b	0.0026045504
59	0x3cc12621	0.023577752
60	0x3c454d04	0.012042288
61	0xbc3634d2	-0.011120992
62	0x3c97e450	0.018541485
63	0xbd4e3820	-0.050346494
64	0xbbab5c0f	-0.00522948
65	0x3d11bc17	0.035579767
66	0x3d0a839e	0.033816926
67	0xbc79bc9a	-0.01524272
68	0x3c8b19ad	0.016980017
69	0xbc1304b8	-0.008973293
70	0xbcbba0b6	-0.022903781
71	0x3d2bc556	0.04193624
72	0x3d37b96f	0.044854578
73	0xbd42221c	-0.04739581
74	0xbbc727a2	-0.0060777226
75	0xbc84676a	-0.016162593
76	0x3c81a6c7	0.015826596
77	0xbd02c5a5	-0.03192677
78	0x3c2a5e1c	0.010398414
79	0x3d04b5d3	0.032399964
80	0x3c3a1d1b	0.011359478
81	0x3cfd189e	0.030895527
82	0xbcc24fd8	-0.023719713
83	0x3d4b46f4	0.049628213
84	0x3c21b462	0.009869667
85	0xbd1bf068	-0.038071066
86	0xbc1a41e9	-0.009415128
87	0xbc7b9c38	-0.01535707
88	0xbd03050d	-0.03198724
89	0xbcfffefa	-0.031249512
90	0x3cb55e2b	0.02213963
91	0xbc33c0ad	-0.01097123
92	0x3d2f00df	0.04272544
93	0x3bf23069	0.007391025
94	0x3d061397	0.032733526
95	0x3c9ced10	0.019156009
96	0x3d086f04	0.033308998
97	0xbc2e05e4	-0.010621522
98	0xbcd39e24	-0.025832243
99	0x3cca0568	0.024660781
100	0xbd2121ed	-0.039338995
101	0xbd087b18	-0.033320516
102	0xbc562f31	-0.013072775
103	0xbd4b944d	-0.049701978
104	0xbb897ffc	-0.004196165
105	0xbd119a8b	-0.035547774
106	0xbd2e5615	-0.042562563
107	0x3d34a6a9	0.044104252
108	0xbd3920b1	-0.045197193
109	0x3c7193ee	0.014744742
110	0xbd1cd71e	-0.03829109
111	0xbb311120	-0.0027018264
112	0xbd11ea17	-0.035623636
113	0xbcc22acc	-0.023702048
114	0x3ca066c3	0.01958025
115	0x3caf29c4	0.02138222
116	0x3a5734cd	0.0008209467
117	0x3d002cd6	0.03129276
118	0x3d377fc0	0.044799566
119	0x3d07adc4	0.0331247
120	0xbd0f9894	-0.03505762
121	0xbcfdf9e1	-0.03100294
122	0xbcd66239	-0.026169883
123	0x3cd00cfb	0.025396815
124	0x3d1995c5	0.037496347
125	0xbd4ae6b5	-0.049536426
126	0xbaf18a10	-0.0018427987
127	0xbcf418e2	-0.029797021
