output/clustering/new-epitopes/model_7.pt (torch, 800828 bytes, 26 tensors)

backbone.cnn.0.weight f4 [128, 31, 2, 3]
0.05151329 -0.033950247 0.028940469 0.059087664 0.066457525 0.051877145 -0.07418425 0.03092331
-0.04543071 0.0022963693 0.00015258684 -0.065229975 0.031034097 -0.05157746 0.013035929 0.04134126
0.063650556 -0.020723484 -0.008906159 0.04246031 0.039075587 -0.0040684273 0.029495092 -0.028573526
0.008976237 -0.046339717 0.05992139 0.028852832 0.03196712 -0.07454802 -0.010162129 -0.05108961
0.040794965 0.0012427971 0.044359624 -0.030882208 0.027088039 0.063870944 -0.06321764 -0.06971213
-0.05928066 -0.007248681 -0.017478501 -0.06635465 -0.06787996 -0.05337893 0.067290254 0.010521903
0.048625726 -0.031354208 -0.07149147 0.016926927 -0.030741245 0.037388932 0.04828485 -0.05248363
0.059764393 0.027623814 0.06917131 -0.03161048 -0.07097239 0.047897954 -0.0022420571 -0.032659955
0.029258765 0.010687661 -0.0029487286 -0.029391382 0.064890206 -0.07049189 -0.025759596 0.04446084
0.023009688 -0.04320879 0.004191006 0.06681656 0.061198644 0.060462933 0.0031122493 0.06323406
-0.031894904 0.0136025 0.020139467 -0.057516765 -0.046062145 0.054528117 -0.004681915 -0.048497386
-0.030547472 -0.0582805 -0.01512039 0.029141732 0.03131962 0.009244174 -0.05893054 -0.044892114
0.014839582 0.0026856526 -0.06778352 -0.07249828 0.015989905 0.050541844 0.028450053 0.05950604
-0.029565182 -0.043260463 -0.039028056 -0.020980734 0.009374888 -0.012009533 -0.023214307 0.069290996
0.048772797 0.0012594764 -0.007558935 0.04704064 -0.012767667 -0.04079111 0.0026813617 -0.020930039
-0.0669222 -0.034119178 0.054023378 0.039881684 0.02781297 0.020851472 0.060695097 0.04372051
0.0021118945 -0.069554634 -0.039700776 0.030097375 -0.057248138 0.06115518 0.003453975 -0.061475147
0.051407732 0.00216609 0.011921262 0.00429379 0.006999142 0.036613703 0.05144826 0.049484614
0.050328616 -0.060780413 0.06674512 0.011815072 -0.072620496 -0.061398763 -0.024870146 0.07745047
-0.009502224 -0.066861905 0.062599935 0.036180086 -0.06760982 -0.07374022 -0.07082466 0.023943296
-0.0040454087 -0.0026011884 0.016235625 -0.01974599 -0.045673575 0.054830767 -0.0012267493 0.05030958
-0.074601345 0.027433056 0.05966181 -0.057740487 0.06713218 0.043990053 -0.028592799 0.026075259
0.055710357 0.055537038 0.06349549 0.045206066 -0.060687866 0.072838716 -0.04057184 -0.020628484
0.04360016 0.025555516 0.042515323 -0.018120151 -0.011604056 0.059431247 0.07263443 0.04467251
-0.04464879 -0.05867845 0.066729605 0.07246678 0.029789446 0.0700316 -0.06714746 -0.041092943
0.010854854 -0.06868728 0.050022844 0.044485763 -0.0070635313 0.0017125773 0.027708093 0.049167357
-0.014150414 -0.021535179 -0.029207105 -0.021787833 -0.014769598 0.013459837 0.042552996 0.0384879
0.011697846 -0.06851742 0.029727224 -0.03549117 0.011964041 -0.001437808 0.027144542 -0.0601138
0.063997224 0.007929696 -0.057782523 -0.03201613 0.06909935 0.0029398466 0.019885635 -0.008976568
0.050217673 -0.073052354 -0.0014770809 0.07031393 -0.049858082 -0.013730162 0.070110746 0.042371307
0.004719352 -0.043911535 0.06465249 -0.05850425 -0.009776213 0.034542017 -0.003036795 -0.042726304
-0.037792776 -0.0039096153 0.06007154 -0.006713094 0.0077582533 0.02181914 0.0038815893 -0.0086839385
00000000: 99ff 523d 6a0f 0bbd 9014 ed3c e805 723d
00000010: e21a 883d 217d 543d e9ed 97bd e252 fd3c
00000020: 8d15 3abd af7e 163b b8ff 1f39 4b97 85bd
00000030: 383b fe3c e342 53bd a694 553c 7455 293d
00000040: 395b 823d 4cc4 a9bc 23eb 11bc ddea 2d3d
00000050: b90d 203d 7150 85bb b19f f13c 0713 eabc
00000060: 1111 133c b7ce 3dbd 2270 753d c65c ec3c
00000070: f4ef 023d a2ac 98bd 0f7f 26bc 5743 51bd
00000080: 9f18 273d 5ae5 a23a 70b2 353d affc fcbc
00000090: bce7 dd3c c5ce 823d 4078 81bd 3cc5 8ebd
000000a0: 47d0 72bd 5886 edbb 132f 8fbc f2e4 87bd
000000b0: a604 8bbd dda3 5abd 79cf 893d 0f64 2c3c
000000c0: c52b 473d 456d 00bd 1f6a 92bd 57aa 8a3c
000000d0: 10d5 fbbc 2325 193d 56c6 453d 13f9 56bd
000000e0: 82cb 743d 564b e23c b0a9 8d3d fe79 01bd
000000f0: f959 91bd a530 443d 7aef 12bb 72c6 05bd
00000100: 14b0 ef3c 4d1b 2f3c 753f 41bb 32c6 f0bc
00000110: 28e5 843d 0d5e 90bd ca05 d3bc 921c 363d
00000120: d07e bc3c b3fb 30bd b554 893b 1fd7 883d
00000130: 6eab 7a3d fba7 773d e1f6 4b3b dc80 813d
00000140: 3ba4 02bd 05dd 5e3c 86fb a43c b396 6bbd
00000150: a9ab 3cbd e058 5f3d c06a 99bb 32a5 46bd
00000160: b13e fabc 89b7 6ebd 83bb 77bc a4ba ee3c
00000170: 0049 003d e074 173c 2661 71bd cbe0 37bd
00000180: b821 733c c601 303b 16d2 8abd fa79 94bd
00000190: 43fd 823c f704 4f3d 1610 e93c 9bbc 733d
000001a0: ae32 f2bc e231 31bd e2db 1fbd cadf abbc
000001b0: 2199 193c a2c3 44bc ee2b bebc 70e8 8d3d
000001c0: fcc5 473d 0415 a53a f1b0 f7bb b0ad 403d
000001d0: 7a2f 51bc 9414 27bd c9b9 2f3b 7975 abbc
000001e0: 820e 89bd 8dc0 0bbd 9e47 5d3d fa5a 233d
000001f0: 07d8 e33c b5d0 aa3c 6c9b 783d 4714 333d
00000200: b667 0a3b a972 8ebd 489d 22bd c58e f63c
00000210: 067d 6abd db7d 7a3d 165c 623b 5dcd 7bbd
00000220: ea90 523d f6f4 0d3b 6651 433c ecb2 8c3b
00000230: 0f59 e53b 40f8 153d 69bb 523d 61b0 4a3d
00000240: 6125 4e3d e2f4 78bd aab1 883d 0194 413c
00000250: 0eba 94bd 457d 7bbd 7abc cbbc 5a9e 9e3d
00000260: 37af 1bbc e5ee 88bd 6534 803d 9231 143d
00000270: 0477 8abd 1d05 97bd 850c 91bd bb24 c43c
00000280: 598f 84bb b378 2abb 9300 853c 58c2 a1bc
00000290: 3714 3bbd 3a96 603d e0ca a0ba 6b11 4e3d
000002a0: 97c8 98bd 4abb e03c f15f 743d 4a81 6cbd
000002b0: 997c 893d ea2e 343d 723b eabc c89b d53c
000002c0: 8b30 643d ce7a 633d ec09 823d ff29 393d
000002d0: d793 78bd 772c 953d a82e 26bd 11fd a8bc
000002e0: 1596 323d cd59 d13c 8c24 2e3d b670 94bc
000002f0: f01e 3ebc 2e6e 733d 5cc1 943d 86fa 363d
00000300: a6e1 36bd d058 70bd 88a9 883d 7769 943d
00000310: ff08 f43c ba6c 8f3d 9c84 89bd 1351 28bd
00000320: 8fd8 313c ebab 8cbd c1e4 4c3d b436 363d
00000330: 3275 e7bb 8f78 e03a 15fc e23c b663 493d
00000340: 23d7 67bc 8b6a b0bc bd43 efbc 667c b2bc
00000350: 2ffc 71bc a686 5c3c 0d4c 2e3d 7da5 1d3d
00000360: 53a8 3f3c dc52 8cbd 8286 f33c 305f 11bd
00000370: d304 443c d574 bcba 3b5e de3c e339 76bd
00000380: fa10 833d 8eeb 013c 5ead 6cbd 5823 03bd
00000390: f683 8d3d 71aa 403b 33e7 a23c 7412 13bc
000003a0: 0cb1 4d3d 799c 95bd 9c9a c1ba c000 903d
000003b0: fd37 4cbd 79f4 60bc 3996 8f3d 898d 2d3d
000003c0: cba4 9a3b 95dc 33bd 8668 843d 27a2 6fbd
000003d0: 692c 20bc ee7b 0d3d f704 47bb c701 2fbd
000003e0: 99cc 1abd 3b1c 80bb 930d 763d 84f9 dbbb
000003f0: f238 fe3b 0ebe b23c 4362 7e3b 1447 0ebc

backbone.cnn.0.bias f4 [128]
0.034840982 0.06873788 0.015574425 0.03608975 -0.069783196 0.011102992 -0.067913815 -0.056901418
0.04812777 0.039625008 -0.053435333 0.025908526 -0.044872776 -0.020742884 0.026029121 0.0041953125
0.013247986 0.004680426 0.031580534 -0.0545372 0.019959489 0.012326736 -0.04800998 0.052630607
-0.07328787 0.020672418 0.050422702 0.01741367 -0.029761488 0.07058007 -0.038656354 0.043939814
-0.040984515 0.0076738503 0.05364068 -0.040026877 -0.03327948 0.018759739 0.012781908 -0.013953129
-0.059866276 0.037791204 0.024613794 -0.030711584 -0.07384206 0.06849788 0.013837853 -0.022021987
0.022034066 0.047330067 -0.02638111 -0.05352907 0.07150153 0.01923486 0.0146910455 0.06939232
0.071374536 -0.04820475 -0.018660715 -0.01089751 0.020637289 -0.0660805 -0.03171368 -0.029423185
0.0193945 0.03723419 0.06782806 0.061268505 0.028907904 0.004764971 -0.061183795 0.045743264
-0.0064288527 -0.01782075 0.0570986 0.0043181255 -0.05477166 -0.048656557 0.024379464 0.001320978
0.07432993 0.008982106 0.058582798 0.019961039 0.034036472 0.02276172 0.049264256 -0.014079791
0.009022654 -0.039601862 0.0396403 0.0585974 0.020736123 0.009622731 -0.05744671 -0.062477075
-0.020806096 -0.04165787 0.021265155 -0.062430657 0.00020682592 -0.0740628 -0.023208566 0.011457791
-0.004916608 -0.065076046 -0.029595634 -0.036572717 -0.012549495 0.00876991 0.04950829 -0.07320463
0.053999916 0.048974324 -0.024675962 -0.0443147 -0.07336752 0.046013016 0.057274044 -0.044680297
-0.0045957398 -0.018951517 -0.050676215 0.070383 -0.007432855 0.028961195 0.06070188 -0.043178737
00000000: 6bb5 0e3d 72c6 8c3d e02b 7f3c d8d2 133d
00000010: 7eea 8ebd 53e9 353c 6616 8bbd 7611 69bd
00000020: a021 453d d54d 223d 02df 5abd 1e3e d43c
00000030: 84cc 37bd fbec a9bc 063b d53c d578 893b
00000040: 150e 593c 425e 993b 975a 013d 6662 5fbd
00000050: 1582 a33c 14f6 493c 1da6 44bd 3193 573d
00000060: f317 96bd 3459 a93c 0988 4e3d 1da7 8e3c
00000070: 5dce f3bc 498c 903d 2056 1ebd 3cfa 333d
00000080: 61df 27bd ec74 fb3b 54b6 5b3d 39f3 23bd
00000090: 1050 08bd 06ae 993c 356b 513c aa9b 64bc
000000a0: 5736 75bd f3ca 1a3d dea2 c93c dc96 fbbc
000000b0: 823a 97bd 9e48 8c3d 2ab8 623c 7467 b4bc
000000c0: c980 b43c 2cdd 413d 331d d8bc 4c41 5bbd
000000d0: 656f 923d 6d92 9d3c b6b2 703c 901d 8e3d
000000e0: d02c 923d 5872 45bd 5bde 98bc 788b 32bc
000000f0: 880f a93c 3755 87bd 34e6 01bd e408 f1bc
00000100: 37e1 9e3c e182 183d 70e9 8a3d aff4 7a3d
00000110: 45d0 ec3c 7923 9c3b dc9b 7abd 4a5d 3b3d
00000120: 20a9 d2bb d2fc 91bc 39e0 693d 107f 8d3b
00000130: 4058 60bd 194c 47bd 71b7 c73c ab24 ad3a
00000140: 4a3a 983d af29 133c 84f4 6f3d 5585 a33c
00000150: d469 0b3d c976 ba3c 51c9 493d ecae 66bc
00000160: c1d3 133c 9035 22bd de5d 223d d403 703d
00000170: cdde a93c a9a8 1d3c 3e4d 6bbd f6e7 7fbd
00000180: 8c71 aabc 71a1 2abd 4334 ae3c 4ab7 7fbd
00000190: 69df 5839 3dae 97bd e41f bebc 75b9 3b3c
000001a0: 7f1b a1bb 9746 85bd 8b72 f2bc 46cd 15bd
000001b0: 669c 4dbc abaf 0f3c 34c9 4a3d 4fec 95bd
000001c0: 042f 5d3d 4d99 483d 3e25 cabc 5583 35bd
000001d0: b641 96bd 2578 3c3d 3098 6a3d b002 37bd
000001e0: dc97 96bb 3640 9bbc dd91 4fbd f624 903d
000001f0: 4f8f f3bb 0740 ed3c 89a2 783d 30dc 30bd

backbone.cnn.2.weight f4 [128]
1.0030581 1.0008576 1.0007313 1.0004207 0.9996442 1.0010552 1.0003948 0.99997246
0.99884653 0.99969226 1.000887 1.0004885 1.0016716 0.9992381 0.99918795 0.9988821
1.0017734 1.000765 1.00075 0.99964625 1.0006169 0.99958146 1.0003514 0.9988538
1.0003237 0.99943316 1.001632 1.0013016 0.998602 1.000999 0.99977636 1.0007206
0.99961436 0.99894685 0.9997844 0.99969065 0.9988353 1.000993 0.9998409 0.9993846
0.9981996 0.9992855 0.9997368 0.99939805 0.9994536 0.99876386 0.99962735 0.9995132
0.99979335 0.99893534 1.0009842 0.9981006 0.9980615 1.0002207 1.0013987 1.0004237
1.0006028 1.0010414 1.0000589 0.99891996 0.99893594 0.99850535 0.99921846 1.0006113
0.9993005 0.99963063 0.9995878 1.0000308 1.0014496 0.9985262 1.0011972 0.9999455
1.0003463 0.99895763 0.9992922 1.0001569 1.000061 0.9992294 0.99946475 0.9996574
1.0011435 1.0012565 0.99985623 1.0017451 0.99892926 1.0001923 1.001006 0.99938875
0.9994702 1.0016086 0.9998655 0.9999806 1.0001476 1.000281 0.9996913 0.99906236
1.0001692 0.9990061 1.0001293 1.0013418 1.000396 1.0003029 1.0001912 0.9977934
0.99943745 1.0003029 1.0000743 0.99966365 0.99982154 1.0004474 0.99910975 0.9988714
0.9982452 1.0015115 1.0008991 1.0012493 1.0005656 1.0020443 0.99991554 0.99934465
0.9997455 0.99763536 1.0014967 0.9996211 1.0013729 1.0009959 0.9989788 1.0013384
00000000: 3564 803f 1a1c 803f f717 803f c90d 803f
00000010: afe8 7f3f 9422 803f f00c 803f 32fe 7f3f
00000020: 68b4 7f3f d5eb 7f3f 111d 803f 0210 803f
00000030: c636 803f 11ce 7f3f c8ca 7f3f bdb6 7f3f
00000040: 1c3a 803f 1119 803f 9318 803f d1e8 7f3f
00000050: 3714 803f 92e4 7f3f 840b 803f e2b4 7f3f
00000060: 9b0a 803f dada 7f3f 7a35 803f a72a 803f
00000070: 61a4 7f3f bc20 803f 58f1 7f3f 9d17 803f
00000080: bae6 7f3f fbba 7f3f dff1 7f3f baeb 7f3f
00000090: acb3 7f3f 8a20 803f 93f5 7f3f abd7 7f3f
000000a0: 028a 7f3f 2dd1 7f3f c0ee 7f3f 8dd8 7f3f
000000b0: 31dc 7f3f fdae 7f3f 94e7 7f3f 19e0 7f3f
000000c0: 75f2 7f3f 3aba 7f3f 4020 803f 8583 7f3f
000000d0: f580 7f3f 3b07 803f d52d 803f e20d 803f
000000e0: c113 803f 2022 803f ee01 803f 38b9 7f3f
000000f0: 44ba 7f3f 0c9e 7f3f c8cc 7f3f 0814 803f
00000100: 28d2 7f3f cbe7 7f3f fce4 7f3f 0201 803f
00000110: 802f 803f 6a9f 7f3f 3b27 803f 6efc 7f3f
00000120: 590b 803f b0bb 7f3f 9dd1 7f3f 2405 803f
00000130: 0002 803f 7fcd 7f3f ecdc 7f3f 8ce9 7f3f
00000140: 7825 803f 2c29 803f 94f6 7f3f 2f39 803f
00000150: d4b9 7f3f 4d06 803f f720 803f f1d7 7f3f
00000160: 47dd 7f3f b634 803f 2ff7 7f3f bbfe 7f3f
00000170: d604 803f 3509 803f c5eb 7f3f 8dc2 7f3f
00000180: 8b05 803f ddbe 7f3f 3d04 803f f82b 803f
00000190: fa0c 803f ed09 803f 4406 803f 636f 7f3f
000001a0: 22db 7f3f ed09 803f 6f02 803f f5e9 7f3f
000001b0: 4ef4 7f3f a90e 803f a8c5 7f3f 09b6 7f3f
000001c0: ff8c 7f3f 8731 803f 761d 803f f028 803f
000001d0: 8912 803f fd42 803f 77fa 7f3f 0dd5 7f3f
000001e0: 52ef 7f3f 0865 7f3f 0b31 803f 2be7 7f3f
000001f0: fd2c 803f a220 803f 13bd 7f3f db2b 803f

backbone.cnn.2.bias f4 [128]
0.0015720758 0.0006732391 -0.00049783237 -0.0012071248 -0.00011742808 0.001771701 -0.0008832526 0.00030314722
0.00048328505 0.0006590339 3.6212336e-05 0.0010305642 0.0016248472 0.0015242349 0.0001939477 -0.0003941638
-0.00032587722 0.0003946 0.00067968346 0.00071417383 0.001118266 0.00068916543 0.0006611148 -0.0013083576
0.0014737012 0.0018478613 -0.0037065516 0.0019313298 0.0015183904 -0.00096025295 0.001226634 -0.00018884093
-0.001238578 -5.970708e-05 0.001136026 0.0011033876 0.0010559263 -0.0005876685 -0.0016854027 -0.001359717
0.0003423856 0.00048668738 5.324358e-05 -0.0005869811 -0.0010313981 -0.0006790741 -0.0005080234 0.0012086345
0.0016702394 0.0014504249 -0.00066361926 0.0016648736 -0.002836536 0.0006728913 0.00045693014 0.00026670328
0.00012312354 0.00061506865 -0.00026641373 0.0003112026 0.0015130206 -0.0005161717 0.0010936068 0.0012155173
0.0015381464 -0.00031021843 0.00020419562 -0.0018327793 -0.000287058 -0.00054199644 -0.0013073456 -0.0017312609
0.000372951 0.0012566166 0.0014193372 0.0021658135 0.0009224097 0.0012768494 0.00018862552 0.0018674083
-0.0008870986 -0.0008206394 -0.0008193928 0.0007864334 0.00077938085 -0.0015342886 -0.00069693703 8.457526e-05
-1.3796997e-05 -0.0009388027 -0.0002498085 -0.0004008301 0.00074966287 -0.001166377 0.0014516565 0.00073025736
0.001360497 0.0007151799 0.00083037635 -0.0014183907 0.00028002306 -0.0005625375 0.0011156342 0.0014634957
-0.00015123667 -0.00024001938 0.00079364737 0.0012416933 0.003844315 -0.00047369173 -0.0008326385 0.00042050408
0.0008507588 0.0016527774 0.00019611068 -0.00093069655 -0.0013922461 0.0008164485 -0.00027871938 0.0012701282
0.0011545572 -0.0004992886 -0.00029199032 0.0010558929 0.0022192693 -0.0021196438 0.0018119623 0.00053371536
00000000: 1c0e ce3a 507c 303a f780 02ba 6338 9eba
00000010: b843 f6b8 6c38 e83a 148a 67ba bbef 9e39
00000020: 6c61 fd39 04c3 2c3a b3e2 1738 ff13 873a
00000030: d3f8 d43a d6c8 c73a 705e 4b39 c5a7 ceb9
00000040: 80da aab9 51e2 ce39 c92c 323a 6537 3b3a
00000050: c892 923a 1ca9 343a aa4e 2d3a 327d abba
00000060: 3529 c13a f033 f23a 9ee9 72bb ad24 fd3a
00000070: ba04 c73a 7cb9 7bba 02c7 a03a 9a03 46b9
00000080: c857 a2ba fd6d 7ab8 b5e6 943a 8b9f 903a
00000090: 0267 8a3a c40d 1aba bbe8 dcba 8838 b2ba
000000a0: 3882 b339 132a ff39 dc51 5f38 a3df 19ba
000000b0: fa2f 87ba e403 32ba e02c 05ba 0b6b 9e3a
000000c0: efeb da3a 2f1c be3a bcf6 2dba e337 da3a
000000d0: 2de5 39bb f964 303a 2090 ef39 4fd4 8b39
000000e0: b91a 0139 8f3c 213a 72ad 8bb9 e828 a339
000000f0: 8c50 c63a b24f 07ba 5b57 8f3a fe51 9f3a
00000100: a19b c93a d0a4 a2b9 581d 5639 de39 f0ba
00000110: 4680 96b9 c414 0eba 3d5b abba 7aeb e2ba
00000120: a388 c339 0eb5 a43a 0e09 ba3a 52f0 0d3b
00000130: decd 713a f55b a73a c7c9 4539 d3c3 f43a
00000140: 2e8c 68ba 2e20 57ba 85cc 56ba a728 4e3a
00000150: 5d4f 4c3a 2f1a c9ba a7b2 36ba ff5d b138
00000160: a779 67b7 fc19 76ba bbf8 82b9 8126 d2b9
00000170: 0685 443a 1ee1 98ba 8245 be3a be6e 3f3a
00000180: b452 b23a e97a 3b3a 9dad 593a 4be9 b9ba
00000190: 0fd0 9239 4177 13ba 793a 923a c4d2 bf3a
000001a0: 4995 1eb9 b6ad 7bb9 c60c 503a 50c0 a23a
000001b0: e7f0 7b3b d459 f8b9 6d45 5aba 1a77 dc39
000001c0: 7505 5f3a 02a2 d83a 0fa3 4d39 fdf9 73ba
000001d0: 077c b6ba ee06 563a 1521 92b9 6e7a a63a
000001e0: 8354 973a b1e2 02ba 4716 99b9 e365 8a3a
000001f0: 2971 113b b9e9 0abb 5e7f ed3a 08e9 0b3a

backbone.cnn.2.running_mean f4 [128]
0.07203762 0.12676165 0.041047778 0.032393448 0.0017286994 0.1019277 0.00016450703 0.0028065674
0.05153774 0.059726253 0.03927815 0.13701424 0.02052104 0.032622244 0.07011666 0.03376776
0.06687011 0.006311308 0.029918917 0.006431291 0.09269 0.08889626 0.0031861612 0.060145963
0.052662045 0.044300623 0.02656742 0.047431618 0.023671241 0.04895426 0.0019477422 0.053668
0.011623296 0.036903467 0.12689207 0.05179438 0.01914457 0.022754235 0.05247307 0.10919108
0.02204451 0.042241603 0.047397185 0.011911787 0.006354175 0.04909013 0.016189506 0.08090008
0.14026733 0.13087119 0.11543216 0.021996103 0.034207646 0.12810597 0.041765142 0.16494021
0.08162283 0.01741443 0.012795238 0.0480061 0.056694504 0.0031524508 0.0062240674 0.003936866
0.12904261 0.12419833 0.0819 0.07026767 0.04048426 0.006805898 0.008803552 0.05349099
0.038921986 0.07900512 0.11272571 0.08987001 0.03558999 0.000622203 0.028149595 0.060001604
0.09749745 0.030680949 0.077070944 0.08326048 0.07800698 0.05585621 0.10298589 0.035459302
0.03428313 0.06647498 0.06112334 0.19247119 0.01265342 0.041681677 0.09862618 0.017320007
0.011350262 0.005242604 0.047140453 0.0077568763 0.060347877 0.004786137 0.041049223 0.07726121
0.003706146 0.010566532 0.08807313 0.027067337 0.06131178 0.069038115 0.04250781 0.003958719
0.10513704 0.059209395 0.014702079 0.03847237 0.0029262402 0.05123258 0.08532725 0.04977881
0.023789342 0.024189312 0.0035403962 0.078439936 0.13600531 0.044308916 0.102600954 0.01945271
00000000: 7688 933d cecd 013e b721 283d feae 043d
00000010: 8795 e23a 78bf d03d 857f 2c39 63ee 373b
00000020: 3d19 533d 84a3 743d 20e2 203d 764d 0c3e
00000030: bd1b a83c e79e 053d 5399 8f3d 1050 0a3d
00000040: 32f3 883d 17cf ce3b 8418 f53c 94bd d23b
00000050: 41d4 bd3d 3e0f b63d eace 503b 9d5b 763d
00000060: 28b4 573d 9274 353d eba3 d93c a847 423d
00000070: 31ea c13c 4384 483d 624b ff3a fad2 5b3d
00000080: a36f 3e3c 1728 173d ffef 013e 5826 543d
00000090: 13d5 9c3c 1767 ba3c 00ee 563d 939f df3d
000000a0: b096 b43c 8805 2d3d 8d23 423d a829 433c
000000b0: af36 d03b bb12 493d db9f 843c f1ae a53d
000000c0: 3da2 0f3e 1903 063e b267 ec3d 2c31 b43c
000000d0: 511d 0c3d 362e 033e ed11 2b3d 16e6 283e
000000e0: df29 a73d b5a8 8e3c 1ea3 513c 0ba2 443d
000000f0: 7f38 683d 5999 4e3b 43f3 cb3b d300 813b
00000100: bf23 043e b25b fe3d 30bb a73d 7fe8 8f3d
00000110: d3d2 253d 0304 df3b c63c 103c 5e19 5b3d
00000120: a96c 1f3d 70cd a13d bddc e63d c50d b83d
00000130: cfc6 113d 561b 233a fb99 e63c 3ec4 753d
00000140: beac c73d 9d56 fb3c 5fd7 9d3d 7884 aa3d
00000150: 20c2 9f3d 7bc9 643d 44ea d23d c63d 113d
00000160: 786c 0c3d 0924 883d 785c 7a3d 2b17 453e
00000170: 4a50 4f3c 68ba 2a3d 86fc c93d b0e2 8d3c
00000180: 73f6 393c 26ca ab3b 5916 413d 652d fe3b
00000190: 562f 773d 07d5 9c3b 3b23 283d 203b 9e3d
000001a0: d0e2 723b 3f1f 2d3c af5f b43d 52bc dd3c
000001b0: 1022 7b3d db63 8d3d ab1c 2e3d 24b8 813b
000001c0: 1752 d73d 8d85 723d fde0 703c 3495 1d3d
000001d0: 2ac6 3f3b 41d9 513d 0ec0 ae3d dee4 4b3d
000001e0: dee1 c23c aa28 c63c fe05 683b 1ea5 a03d
000001f0: fa44 0b3e 447d 353d 7320 d23d 4a5b 9f3c

backbone.cnn.2.running_var f4 [128]
0.0070122466 0.014877965 0.0058868933 0.0019655195 0.00019953084 0.017922642 1.5510113e-05 0.0002171595
0.0052067493 0.0077100876 0.0060969945 0.020944776 0.0031855728 0.0052868803 0.0075860405 0.005466492
0.010871469 0.00038032676 0.0018669608 0.00071134587 0.015311784 0.013012545 0.0003917999 0.005129363
0.007849488 0.005409373 0.0010843647 0.0051389947 0.0035469078 0.0033580335 0.00021686233 0.0045962036
0.0013488197 0.0048025823 0.01897016 0.0073829805 0.0025234758 0.0018910809 0.009051438 0.022505205
0.0039531337 0.0038399904 0.0045382585 0.0015706349 0.0010595331 0.0029866204 0.0015833306 0.0138289025
0.025989981 0.025322966 0.027790722 0.003317878 0.0016927762 0.019450754 0.0048736357 0.017637918
0.007120528 0.0020968975 0.002144361 0.008086314 0.006475884 0.0002881934 0.0006702251 0.00045580193
0.021864768 0.018691743 0.008559878 0.0062274956 0.0034981798 0.0005385114 0.001117512 0.004765588
0.0048211296 0.014358855 0.012587421 0.017117532 0.0052419305 5.234644e-05 0.002675821 0.013530891
0.008907867 0.0033649078 0.0066208527 0.013469729 0.0063487687 0.014837807 0.014000069 0.0061085494
0.004502535 0.017863214 0.0063267467 0.025067715 0.00048302137 0.006797499 0.019136293 0.002400241
0.0011294202 0.000757314 0.005026157 0.0008729352 0.010267465 0.0005748659 0.008725019 0.010192688
0.00052023923 0.0016053378 0.017197331 0.0049041198 0.010724984 0.012068805 0.004664049 0.0005332923
0.012196733 0.0049311165 0.0018781341 0.007028027 0.00028518608 0.0038412279 0.01233148 0.006811548
0.003320937 0.0037930657 0.0003000064 0.0050537763 0.031468485 0.0041346005 0.010373544 0.002498399
00000000: fdc6 e53b b5c2 733c d7e6 c03b f2cf 003b
00000010: 2739 5139 81d2 923c b71b 8237 4fb5 6339
00000020: 619d aa3b e7a4 fc3b 4cc9 c73b 6194 ab3c
00000030: 0bc5 503b 913d ad3b 5294 f83b 4220 b33b
00000040: 3f1e 323c 9866 c739 cfb4 f43a 9d79 3a3a
00000050: 47de 7a3c 9232 553c 7e6a cd39 3714 a83b
00000060: 249b 003c 1c41 b13b 3e21 8e3a 0365 a83b
00000070: 3d73 683b 7412 5c3b 8a65 6339 c09b 963b
00000080: e1ca b03a fb5e 9d3b 4f67 9b3c eeec f13b
00000090: e660 253b 25de f73a 7c4c 143c d65c b83c
000000a0: 4a89 813b 59a8 7b3b acb5 943b c3dd cd3a
000000b0: 08e0 8a3a 2dbb 433b c287 cf3a 9f92 623c
000000c0: f1e8 d43c 1c72 cf3c 5ea9 e33c c270 593b
000000d0: 25e0 dd3a 3057 9f3c 05b3 9f3b 657d 903c
000000e0: 5153 e93b 1a6c 093b 6888 0c3b 767c 043c
000000f0: a733 d43b aa18 9739 0cb2 2f3a b3f8 ee39
00000100: be1d b33c 6d1f 993c bb3e 0c3c 0510 cc3b
00000110: b841 653b e32a 0d3a 7b79 923a a628 9c3b
00000120: 91fa 9d3b 6741 6b3c 783b 4e3c 113a 8c3c
00000130: 80c4 ab3b 908e 5b38 d45c 2f3b acb0 5d3c
00000140: 4df2 113c c985 5c3b bdf3 d83b 23b0 5c3c
00000150: 5509 d03b 461a 733c 8c60 653c 3a2a c83b
00000160: 008a 933b e055 923c 9950 cf3b cf5a cd3c
00000170: 083e fd39 8ebd de3b b7c3 9c3c 5d4d 1d3b
00000180: 0e09 943a 7b86 463a 76b2 a43b b1d5 643a
00000190: df38 283c 99b2 163a 62f3 0e3c 3bff 263c
000001a0: aa60 083a 336a d23a 6be1 8c3c bdb2 a03b
000001b0: d8b7 2f3c 3dbc 453c e1d4 983b a4cc 0b3a
000001c0: ced4 473c 3495 a13b b92b f63a 5d4b e63b
000001d0: 0785 9539 1cbd 7b3b fa09 4a3c 6833 df3b
000001e0: 14a4 593b 1595 783b 2d4a 9d39 269a a53b
000001f0: 19e5 003d 8b7b 873b ccf5 293c 2ebc 233b

backbone.cnn.3.weight f4 [64, 128, 2, 3]
0.013517622 -0.01942673 0.0019719803 -0.016802521 -0.038457282 0.012109357 -0.024146153 -0.030104887
0.0022997095 0.024476072 0.03384727 0.029678619 0.012815041 -0.0051997704 -0.0037187082 0.02825851
-0.008428116 0.0042907926 -0.031192776 0.034802523 0.025766276 0.0030214647 -0.025239568 0.007831838
-0.023381054 0.017551614 0.00590778 -0.011599327 -0.017426813 0.009018252 -0.03438931 0.013652781
-0.028548896 -0.015150462 -0.014153741 -0.016044984 0.007185915 -0.024774106 -0.03360784 -0.011163177
-0.033153564 -0.008237437 -0.015756743 0.011328108 0.017713388 0.0034078143 -0.016183553 0.035177823
-0.011785957 0.0347503 -0.038236164 -0.007598036 -0.022330893 -0.02113581 -0.022644479 -0.022539297
-0.031059396 0.006002624 -0.016878828 -0.019048102 0.015765565 0.0034295402 0.0009822431 0.022703001
0.015129284 0.006417401 0.002681024 0.020012857 -0.020523285 -0.012451793 -0.03307673 0.017456472
0.025693607 0.028726365 -0.0011194075 -0.012460843 -0.019550083 0.012071317 0.009469774 -0.02121247
-0.012788699 0.0070883897 -0.025261967 -0.002396368 0.011640713 0.026093658 -0.019410081 -0.0081421165
0.017083267 -0.036542073 -0.026283834 0.041729365 0.00017625306 0.02907413 -0.026300533 -0.016540116
0.029168008 -0.0022445798 -0.02079597 0.016564852 0.017099243 -0.004066474 -0.012687649 -0.028074028
-0.027578507 -0.0008813038 0.017456403 0.017087296 0.010739817 0.036864746 -0.017875915 -0.010738173
0.0075441366 0.016342878 -0.0132907005 0.02722021 0.011614181 -0.023470888 -0.01251582 -0.00868356
0.031783912 0.023578236 0.031304635 -0.025953418 0.00127023 0.004008677 0.0010727961 0.027316757
0.026519375 -0.0035415466 -0.030882403 0.0011022949 -0.0014376262 0.03738847 -0.008488001 -0.004751454
0.030120859 0.022373678 -0.00016484573 -0.028061515 -0.027318569 0.030038526 0.023791445 -0.0009789886
-0.01626618 0.019213378 -0.009906695 0.008708943 0.016130937 0.036793016 -0.023328112 -0.014279151
-0.021362936 0.0074054245 -0.029185468 -0.00042759985 0.010220713 0.03315484 0.002116023 -0.019099716
0.013813059 0.01076104 0.035843324 -0.00944509 -0.02600802 0.031716757 0.014489096 0.037569843
0.009533442 0.009278558 0.021337103 0.02681265 -0.02801335 0.0229688 0.015380432 -0.01219303
0.020983811 -0.02474841 0.028184436 0.002080262 0.013126732 0.03069807 0.015970724 0.013906892
-0.021940142 -0.023894576 -0.029052678 0.01582305 0.026665138 0.020674966 -0.03221721 0.032423843
0.0017091096 -0.023513481 0.0077547454 0.01505569 -0.030379228 -0.013475804 -0.022313382 0.027498908
0.026429111 0.02942985 0.019956816 0.0026145303 -0.0040013907 -0.01430205 0.013957527 0.0034537332
0.0029994831 0.030336197 -0.0191423 0.031234246 0.011268955 -0.00010418781 0.03670085 -0.033796206
-0.01666312 0.021546908 0.012991168 0.007632761 0.02719524 -0.014652787 0.026072254 -0.019415135
-0.009755042 0.036566608 0.015372209 -0.017269809 0.0033525808 0.035781886 -0.030007573 -0.0043838527
-0.02387981 -0.0060525136 0.0043265903 -0.019409666 -0.007358579 0.03319038 -0.0034586075 0.033616282
0.003071823 0.021645809 -0.026361125 -0.0076260976 -0.03363708 -0.010170538 0.03112077 0.011693269
0.032638974 0.003317384 -0.01118429 0.03357067 -0.03214346 0.01808035 0.0064871693 -0.0123515185
00000000: 0479 5d3c ce24 9fbc 573c 013b 71a5 89bc
00000010: 6285 1dbd 5366 463c 27ce c5bc 869e f6bc
00000020: b9b6 163b 0b82 c83c 6fa3 0a3d 9320 f33c
00000030: 2df6 513c d662 aabb 92b5 73bb 647e e73c
00000040: 1516 0abc c799 8c3b fe87 ffbc 178d 0e3d
00000050: cc13 d33c c403 463b 36c3 cebc 1c51 003c
00000060: a089 bfbc 67c8 8f3c 0d96 c13b 1b0b 3ebc
00000070: adc2 8ebc 4ac1 133c cedb 0cbd eaaf 5f3c
00000080: 60df e9bc a539 78bc 18e5 67bc c570 83bc
00000090: d377 eb3b 11f3 cabc 60a8 09bd c2e5 36bc
000000a0: 08cc 07bd 51f6 06bc 4914 81bc 8799 393c
000000b0: ab1b 913c a355 5f3b 5f93 84bc 9f16 103d
000000c0: e319 41bc 5556 0e3d 869d 1cbd f2f8 f8bb
000000d0: 47ef b6bc 0225 adbc ea80 b9bc 55a4 b8bc
000000e0: 4670 febc a9b1 c43b 7845 8abc c40a 9cbc
000000f0: c926 813c 23c2 603b 9cbe 803a a5fb b93c
00000100: d1e0 773c 1049 d23b 1eb4 2f3b 01f2 a33c
00000110: 7320 a8bc 9b02 4cbc 777b 07bd e000 8f3c
00000120: 667b d23c 8e53 eb3c 15b9 92ba 9028 4cbc
00000130: 7f27 a0bc c6c6 453c 1c27 1b3c c6c5 adbc
00000140: b187 51bc b945 e83b 2ff2 cebc 620c 1dbb
00000150: b0b8 3e3c 5ec2 d53c e401 9fbc 8366 05bc
00000160: 35f2 8b3c 24ad 15bd 3251 d7bc 69ec 2a3d
00000170: 92d0 3839 df2c ee3c 3774 d7bc 237f 87bc
00000180: bff1 ee3c cd19 13bb 4f5c aabc 03b3 873c
00000190: b613 8c3c 0e40 85bb dbdf 4fbc 81fb e5bc
000001a0: 52ec e1bc 4c07 67ba bb00 8f3c a8fa 8b3c
000001b0: 0ff6 2f3c 7dff 163d 8370 92bc 29ef 2fbc
000001c0: ce34 f73b 80e1 853c 3dc1 59bc ebfc de3c
000001d0: 6849 3e3c 0546 c0bc 270f 4dbc 7e45 0ebc
000001e0: d92f 023d 2527 c13c 4a39 003d 439c d4bc
000001f0: d97d a63a 385b 833b 109d 8c3a 64c7 df3c
00000200: 293f d93c 4b19 68bb 18fd fcbc e17a 903a
00000210: bb6e bcba a724 193d 4211 0bbc 16b2 9bbb
00000220: 05c0 f63c 0149 b73c 70da 2cb9 43e1 e5bc
00000230: 31cb dfbc 5b13 f63c 47e6 c23c 6851 80ba
00000240: a740 85bc 6065 9d3c b14f 22bc f4af 0e3c
00000250: 0725 843c 46b4 163d 991a bfbc 1af3 69bc
00000260: 5301 afbc 34a9 f23b 5d16 efbc 7b2f e0b9
00000270: c774 273c 5fcd 073d faac 0a3b 0277 9cbc
00000280: 2b50 623c 134f 303c 73d0 123d 94bf 1abc
00000290: c50e d5bc 6ee9 013d ac63 6d3c d6e2 193d
000002a0: 2732 1c3c 1805 183c 26cb ae3c 34a6 db3c
000002b0: 417c e5bc 1129 bc3c 35fe 7b3c 46c5 47bc
000002c0: 3ee6 ab3c 2dbd cabc 0ce3 e63c 0155 083b
000002d0: 8111 573c 857a fb3c 09d5 823c bcd9 633c
000002e0: d0bb b3bc 8fbe c3bc e2ff edbc 579f 813c
000002f0: d970 da3c 8c5e a93c 31f6 03bd ddce 043d
00000300: 3404 e03a 589f c0bc 851b fe3b 24ac 763c
00000310: dcdd f8bc 9ec9 5cbc 8eca b6bc 6445 e13c
00000320: dd81 d83c de16 f13c 7a7c a33c 8a58 2b3b
00000330: 191e 83bb 2553 6abc 1cae 643c 0758 623b
00000340: fa92 443b 9e83 f83c 50d0 9cbc f6de ff3c
00000350: 6ca1 383c 687f dab8 a153 163d e46d 0abd
00000360: 1881 88bc 2483 b03c e8d8 543c 3d1c fa3b
00000370: 8dc8 de3c 3e12 70bc 7b95 d53c 7d0c 9fbc
00000380: 9dd3 1fbc dec6 153d b8db 7b3c 6a79 8dbc
00000390: f9b6 5b3b 0790 123d 71d2 f5bc 6ca6 8fbb
000003a0: 979f c3bc 2a54 c6bb 12c6 8d3b 0501 9fbc
000003b0: 3c20 f1bb a3f2 073d cea9 62bb 3ab1 093d
000003c0: a350 493b 8d52 b13c 49f3 d7bc 58e4 f9bb
000003d0: 09c7 09bd 54a2 26bc fcf0 fe3c 2095 3f3c
000003e0: 72b0 053d 7868 593b 503e 37bc 6681 093d
000003f0: dca8 03bd 3e1d 943c 5292 d43b 065e 4abc

backbone.cnn.3.bias f4 [64]
0.030772543 0.0011567815 -0.019853678 0.0009350512 -0.024302347 -0.014026157 0.033488918 0.025545733
-0.02757565 -0.013094564 -0.01988374 0.0022087044 0.036468163 0.03844457 -0.021252928 0.033950824
0.017020242 0.027146505 0.018206766 0.021831663 0.006145552 -0.021364328 0.02267502 0.02462564
0.018109592 -0.008443181 -0.01819078 0.031809043 -0.0068147862 -0.0076254196 -0.016862575 0.02248131
0.002195811 -0.006224915 -0.024127332 0.033148397 0.021795828 0.0051814937 0.023338484 -0.005218713
-0.016090967 -0.025254592 -0.028038308 0.034350883 0.023587216 0.018847786 0.029620007 0.023370586
-0.012159019 -0.0060613025 -0.0076275263 0.03381011 0.011126394 -0.019028094 -0.004370328 0.012074019
0.009890965 -0.013542493 0.032503653 -0.007141682 0.0035396912 -0.014880342 -0.026719905 0.008713533
00000000: b316 fc3c 259f 973a 2ea4 a2bc 391e 753a
00000010: b715 c7bc f7cd 65bc ad2b 093d 4945 d13c
00000020: 54e6 e1bc 958a 56bc 3ae3 a2bc e9bf 103b
00000030: a45f 153d 0e78 1d3d 9f1a aebc 0510 0b3d
00000040: 096e 8b3c 5962 de3c 5b26 953c 51d8 b23c
00000050: a060 c93b 3e04 afbc f7c0 b93c b6bb c93c
00000060: 915a 943c 4555 0abc d504 95bc 334a 023d
00000070: 924e dfbb a8de f9bb 6223 8abc b92a b83c
00000080: 98e7 0f3b 5ffa cbbb afa6 c5bc 9dc6 073d
00000090: 2a8d b23c 85c9 a93b 5930 bf3c bd01 abbb
000000a0: 34d1 83bc b8e2 cebc 98b0 e5bc 83b3 0c3d
000000b0: fa39 c13c ac66 9a3c a8a5 f23c ac73 bf3c
000000c0: 9f36 47bc e49d c6bb 54f0 f9bb 787c 0a3d
000000d0: 7b4b 363c cee0 9bbc f834 8fbb 1bd2 453c
000000e0: b70d 223c 55e1 5dbc 8d22 053d c504 eabb
000000f0: 2afa 673b aecc 73bc b4e3 dabc 35c3 0e3c

backbone.cnn.6.weight f4 [64]
1.0013672 1.0014112 0.9969516 0.9990231 0.9983412 0.9977093 0.99905014 1.0018631
1.0021353 0.99927056 1.001707 1.0022589 0.9986791 0.99914646 1.001727 1.0019679
0.99798685 1.0029587 1.0022318 1.00031 0.9992704 1.001424 0.9976408 0.99934864
1.000454 0.9982469 0.99784255 0.9989858 0.9993099 0.99860144 0.9989945 0.99925894
1.0023972 1.0025051 1.0006423 1.0001407 1.0012318 1.0002921 0.9993175 0.99852854
0.9993672 1.0001811 1.0003408 1.001486 1.0014808 0.9987422 1.0008088 0.9994403
0.99999565 0.9998954 0.9979926 1.0008035 0.9963503 0.997206 0.9985404 1.0010104
1.0037357 0.999437 1.0020456 1.0010936 0.999444 1.0010417 1.0000225 0.99894166
00000000: cd2c 803f 3e2e 803f 3838 7f3f fabf 7f3f
00000010: 4a93 7f3f e069 7f3f c0c1 7f3f 0d3d 803f
00000020: f845 803f 32d0 7f3f ef37 803f 054a 803f
00000030: 6fa9 7f3f 10c8 7f3f 9738 803f 7c40 803f
00000040: 117c 7f3f f360 803f 2249 803f 280a 803f
00000050: 2fd0 7f3f a92e 803f 6365 7f3f 50d5 7f3f
00000060: e00e 803f 1c8d 7f3f 9c72 7f3f 89bd 7f3f
00000070: c6d2 7f3f 58a4 7f3f 1bbe 7f3f 6fcf 7f3f
00000080: 8d4e 803f 1652 803f 0c15 803f 9c04 803f
00000090: 5d28 803f 9209 803f 46d3 7f3f 919f 7f3f
000000a0: 87d6 7f3f ef05 803f 2b0b 803f b130 803f
000000b0: 8630 803f 92ad 7f3f 811a 803f 52db 7f3f
000000c0: b7ff 7f3f 25f9 7f3f 717c 7f3f 541a 803f
000000d0: d010 7f3f e448 7f3f 58a0 7f3f 1c21 803f
000000e0: 697a 803f 1adb 7f3f 0843 803f d623 803f
000000f0: 90db 7f3f 2222 803f bd00 803f a4ba 7f3f

backbone.cnn.6.bias f4 [64]
-0.00040247632 -0.00046571702 -0.0010697861 -0.0012893524 0.0011588186 -0.0007966417 0.000301094 -0.0005875435
0.0009878518 0.0006960933 0.00037366 0.00039220217 -0.00075253897 -0.0008067508 0.0014013995 -0.0005454758
0.0006777078 0.0005468504 -0.0018464004 -0.0005540238 -0.001080694 -0.0005919967 -0.0009641017 0.0018014642
-0.0017170213 -0.00028368772 -0.0014237304 -0.0011490436 -0.00020834821 -0.00016075259 0.00025931234 -0.0012553846
-0.0017355161 0.00022098205 0.0017950915 0.00019588276 -0.00066138624 0.00250152 -0.00082981825 0.00045241683
0.0006068475 0.000137255 4.5250877e-06 0.0012041074 1.7912284e-05 0.0003435058 -0.00091352256 0.0022313287
0.00058755546 -0.00035464703 0.00035354638 -0.0019706278 0.0020723469 -0.00097130216 0.00055739295 -0.00056167884
-0.0006275588 0.0007747442 0.0012199174 0.0013991825 -2.5065065e-05 -0.00061622635 0.0016748973 -0.0013769461
00000000: 7503 d3b9 7b2b f4b9 1138 8cba 7dff a8ba
00000010: 80e3 973a b8d5 50ba 27dc 9d39 6005 1aba
00000020: ce7a 813a 087a 363a cce7 c339 7ca0 cd39
00000030: 0946 45ba 217c 53ba 2aaf b73a 43fe 0eba
00000040: 33a8 313a 825a 0f3a eb02 f2ba e83b 11ba
00000050: 13a6 8dba 3a30 1bba c5bb 7cba 1c1f ec3a
00000060: ad0d e1ba ecbb 94b9 779c baba 819b 96ba
00000070: 0c78 5ab9 b28f 28b9 50f4 8739 b88b a4ba
00000080: 427a e3ba 6bb7 6739 4749 eb3a e165 4d39
00000090: e160 2dba 8bf0 233b 2988 59ba 5c32 ed39
000000a0: d914 1f3a 1cec 0f39 35d6 9736 24d3 9d3a
000000b0: 5642 9637 9118 b439 7679 6fba 7c3b 123b
000000c0: 2e06 1a3a ebef b9b9 315c b939 a625 01bb
000000d0: 36d0 073b fc9e 7eba 021e 123a a13d 13ba
000000e0: c282 24ba 3418 4b3a a3e5 9f3a c664 b73a
000000f0: d142 d2b7 408a 21ba 3a88 db3a a57a b4ba

backbone.cnn.6.running_mean f4 [64]
0.2596906 0.18722713 0.13390955 0.24608332 0.16574973 0.22167468 0.24899776 0.17492801
0.2176273 0.15509251 0.1563922 0.054902192 0.2450623 0.16984934 0.24379615 0.22226912
0.1675817 0.27482665 0.2027115 0.24627768 0.22627184 0.18235235 0.17434184 0.18017049
0.20175172 0.29497656 0.14202486 0.27970016 0.12549804 0.14713725 0.12648511 0.26792488
0.29138306 0.1700237 0.23215008 0.23386246 0.207366 0.2220769 0.20955673 0.13639879
0.11905563 0.16969705 0.15538022 0.21425483 0.09255487 0.24940594 0.14989106 0.21328105
0.22912489 0.23759918 0.19016851 0.21639612 0.14145535 0.21158238 0.29264688 0.13357885
0.22166821 0.2522026 0.25495315 0.21026058 0.17624041 0.213165 0.07602892 0.17818008
00000000: 2bf6 843e 78b8 3f3e 961f 093e 44fd 7b3e
00000010: 4cba 293e b0fe 623e 45f9 7e3e 5420 333e
00000020: b1d9 5e3e 92d0 1e3e 4725 203e 1fe1 603d
00000030: 9df1 7a3e fcec 2d3e b3a5 793e 849a 633e
00000040: 8a9a 2b3e 14b6 8c3e 9a93 4f3e 3730 7c3e
00000050: ceb3 673e 93ba 3a3e ab86 323e 9d7e 383e
00000060: 0198 4e3e 2b07 973e f76e 113e dc34 8f3e
00000070: 8f82 003e 26ab 163e 5085 013e 732d 893e
00000080: 2930 953e b11a 2e3e c0b8 6d3e a479 6f3e
00000090: c157 543e 2068 633e 0a96 563e 20ac 0b3e
000000a0: 70d3 f33d 10c5 2d3e fe1b 1f3e 9e65 5b3e
000000b0: 688d bd3d 4564 7f3e 0b7d 193e 5966 5a3e
000000c0: b79f 6a3e 334d 733e 89bb 423e f296 5d3e
000000d0: acd9 103e 0da9 583e d0d5 953e e5c8 083e
000000e0: fefc 623e b320 813e 3889 823e 8d4e 573e
000000f0: 5e78 343e ed47 5a3e 0db5 9b3d d774 363e

backbone.cnn.6.running_var f4 [64]
0.53456664 0.26431474 0.3492092 1.0629439 0.27177265 0.6475895 0.673832 0.50777113
0.51543033 0.62532544 0.47650054 0.46329015 0.6919034 0.73460513 0.6543353 0.8764762
0.39994407 0.66826695 0.31672832 0.35939378 0.5584635 0.49573913 0.47621408 0.52486616
1.0641935 0.750229 0.4930613 0.42582214 0.31083003 0.33467555 0.3615769 1.0183043
0.6685659 0.27053598 0.5315278 0.81647414 0.645501 0.5750068 0.3778904 0.43905228
0.34680718 0.827125 0.7450869 0.52744573 0.24940258 0.3465376 0.35820478 0.7502407
0.56576085 0.31719446 0.4397318 0.54335105 0.36169755 0.49504796 0.41655383 0.5608225
0.46939746 0.6790218 0.43784976 0.5470109 0.71958774 0.4168895 0.5107828 0.33601692
00000000: 5cd9 083f 4354 873e 8ccb b23e 8c0e 883f
00000010: c925 8b3e 6dc8 253f 4180 2c3f 4afd 013f
00000020: 3ef3 033f 5415 203f e1f7 f33e 5e34 ed3e
00000030: 9520 313f 150f 3c3f 8582 273f bf60 603f
00000040: 78c5 cc3e 8b13 2b3f 372a a23e 7602 b83e
00000050: 77f7 0e3f 85d1 fd3e 55d2 f33e a15d 063f
00000060: 7e37 883f 020f 403f 8872 fc3e 5c05 da3e
00000070: 1d25 9f3e 985a ab3e 9c20 b93e cc57 823f
00000080: 2327 2b3f b183 8a3e 3512 083f 7304 513f
00000090: 8e3f 253f a533 133f da7a c13e 76cb e03e
000000a0: b690 b13e 77be 533f 04be 3e3f af06 073f
000000b0: 6463 7f3e 606d b13e 9e66 b73e c60f 403f
000000c0: b4d5 103f 5067 a23e 8724 e13e 0e19 0b3f
000000d0: 6c30 b93e ed76 fd3e 8b46 d53e 1092 0f3f
000000e0: dd54 f03e 5fd4 2d3f d82d e03e e808 0c3f
000000f0: e736 383f 8a72 d53e a9c2 023f 690a ac3e

backbone.cnn.7.weight f4 [128, 64, 2, 3]
-0.023066124 0.005747759 0.04735021 -0.015583984 0.017726218 0.00073444186 -0.0055978466 -0.02192658
0.03155397 -0.017543292 -0.02266367 0.033017896 0.029734073 -0.045142647 0.0060035815 -0.037669625
-0.040677637 -0.008111003 0.043752264 -0.0070090275 0.04273789 -0.04175479 -0.029410286 0.031170037
0.018504646 0.042564508 -0.038863506 -0.04659068 -0.031128893 0.04966132 0.035592604 0.026506612
0.04398379 0.009796033 -0.004791047 0.013601069 -0.008998337 -0.004954004 0.026089925 -0.009713626
-0.03531878 0.047572482 0.041598085 0.007556934 0.024253873 -0.010391142 0.027067602 -0.008612188
-0.047529414 0.030136291 0.04846038 0.039338097 0.02202159 -0.02393023 0.027286049 -0.009664582
0.01458002 0.021693686 0.037687458 0.031517055 -0.019918183 -0.020918496 0.0014323144 0.01118173
0.0032505791 0.04724967 0.02692837 0.019683918 0.027891852 0.03838611 -0.019955808 0.004756727
0.035075713 0.006857488 0.0178805 -0.005984808 0.048131805 -0.007912129 -0.049035065 0.026888957
0.04365501 0.042923205 0.044618186 0.016364738 0.03769854 0.025304936 0.009873374 -0.017128326
-0.0017888877 -0.03882427 -0.0056316964 0.049638867 0.019249413 -0.043191694 -0.02496626 0.00042311364
-0.011404105 0.04022109 0.040896483 -0.029787768 0.02153617 0.03487268 -0.042843927 0.027484363
0.03452582 -0.009436265 0.040617384 0.046982754 0.034620237 -0.015806274 0.027369637 0.037109524
0.040740583 -0.025957553 0.005170234 -0.027003104 0.017661175 0.0051101916 0.030870562 -0.044417456
0.005588511 -0.015312494 0.006432559 -0.008789061 0.033128433 0.0051082815 0.00729939 0.023867732
0.02975581 -0.015013588 0.039764747 -0.033771407 0.023830257 0.047532022 -0.033597823 0.03803252
-0.00011302946 -0.03347294 0.030032054 0.03556615 -0.031047354 0.028931156 0.016653698 0.022118505
-0.015883189 -0.022173248 -0.0061090225 -0.02336052 -0.030515125 0.032267246 0.0004904424 -0.011530113
0.010041026 0.01123742 -0.041209392 0.0446536 0.026358074 -0.0037350922 0.0376707 -0.030179063
-0.033230316 -0.00791357 -0.030144244 0.046649545 0.040601857 0.029033408 0.030968579 -0.0018108714
-0.03867856 0.04330865 -0.03316882 0.03809877 -0.03509496 -0.02421098 -0.009068914 -0.04067727
0.000857663 0.051970784 -0.038555425 -0.041500308 -0.029823119 0.024088323 0.021815764 0.039573167
0.0041498495 0.045276877 -0.046257704 -0.011984073 0.023758361 -0.03171232 -0.042637337 -0.047545716
-0.018704847 0.0018111486 -0.019903304 -0.020797068 0.010006596 -0.010939801 0.017994508 0.047465008
-0.02907959 0.04668039 0.013012594 0.032733656 -0.045780145 0.01607254 0.017263677 0.015182388
0.002474682 0.050335508 0.050005022 0.005693635 -0.0454382 -0.010281841 -0.048250083 0.007609156
0.029790113 0.044891402 0.013173799 0.016118525 0.045542784 -0.03772671 0.028819384 0.042037256
-0.040064126 -0.04274989 0.024200352 0.020694623 -0.03733051 -0.035705518 -0.007794087 0.013108173
0.03478314 0.010460031 -0.03146147 0.035686057 -0.017208058 -0.024103627 -0.015610283 0.029340846
-0.03779952 -0.038223546 0.019811712 -0.023075465 -0.0041153138 -0.017897842 -0.005797275 0.025657928
-0.030215135 -0.005800517 -0.040705115 0.0071103275 0.013411378 -0.023115216 0.014180046 0.028267508
00000000: 2bf5 bcbc b257 bc3b 4bf2 413d f753 7fbc
00000010: 9336 913c 8f87 403a 246e b7bb 5f9f b3bc
00000020: bc3e 013d f3b6 8fbc 29a9 b9bc c63d 073d
00000030: df94 f33c 7fe7 38bd b1b9 c43b 774b 1abd
00000040: 989d 26bd 03e4 04bc 9335 333d fcab e5bb
00000050: ed0d 2f3d 1207 2bbd d7ed f0bc 4e58 ff3c
00000060: 0e97 973c 1f58 2e3d 572f 1fbd ded5 3ebd
00000070: 0502 ffbc ab69 4b3d 8dc9 113d 6524 d93c
00000080: 5928 343d 8a7f 203c 37fe 9cbb 05d7 5e3c
00000090: c36d 13bc 3355 a2bb 8aba d53c e625 1fbc
000000a0: 6daa 10bd 5ddb 423d c162 2a3d 28a0 f73b
000000b0: 0fb0 c63c 9c3f 2abc e0bc dd3c 221a 0dbc
000000c0: 34ae 42bd 62e0 f63c 647e 463d fc20 213d
000000d0: 9f66 b43c 5409 c4bc fe86 df3c 3258 1ebc
000000e0: 09e1 6e3c f5b6 b13c 2a5e 1a3d 0718 013d
000000f0: 752b a3bc 445d abbc 7fbc bb3a 9333 373c
00000100: ab07 553b df88 413d e398 dc3c 2b40 a13c
00000110: 747d e43c c13a 1d3d 5d7a a3bc 51de 9b3b
00000120: 8dab 0f3d c7b4 e03b 207a 923c 351c c4bb
00000130: db25 453d e0a1 01bc fed8 48bd 3b46 dc3c
00000140: 99cf 323d 3ed0 2f3d 8fc1 363d 580f 863c
00000150: c969 1a3d 4c4c cf3c efc3 213c b450 8cbc
00000160: 1c79 eaba 3306 1fbd 188a b8bb 2052 4b3d
00000170: f2b0 9d3c c6e9 30bd 0b86 ccbc 5ad5 dd39
00000180: 49d8 3abc dfbe 243d 1283 273d 7a05 f4bc
00000190: 9f6c b03c a8d6 0e3d 1d7d 2fbd e326 e13c
000001a0: f26a 0d3d 909a 1abc 6a5e 263d fd70 403d
000001b0: f3cd 0d3d 297c 81bc 4a36 e03c 2800 183d
000001c0: 99df 263d efa4 d4bc 116b a93b 9d35 ddbc
000001d0: 2bae 903c 6573 a73b 43e4 fc3c 14ef 35bd
000001e0: d41f b73b 41e1 7abc 37c8 d23b feff 0fbc
000001f0: aeb1 073d 5f63 a73b b92f ef3b 4386 c33c
00000200: 75c2 f33c 8dfb 75bc 5ce0 223d e353 0abd
00000210: ac37 c33c f0b0 423d df9d 09bd fdc7 1b3d
00000220: 3b0a edb8 ec1a 09bd c805 f63c d0ad 113d
00000230: 0557 febc 0801 ed3c 566d 883c de31 b53c
00000240: 761d 82bc aca4 b5bc 322e c8bb 905e bfbc
00000250: dbfa f9bc a92a 043d 0891 003a cde8 3cbc
00000260: 1e83 243c 281d 383c 2ecb 28bd b1e6 363d
00000270: e3ec d73c 73c8 74bb 984c 1a3d 153a f7bc
00000280: 831c 08bd eba7 01bc 10f1 f6bc 9813 3f3d
00000290: 224e 263d 78d7 ed3c d1b1 fd3c c35a edba
000002a0: 696d 1ebd 6964 313d 07dc 07bd 750d 1c3d
000002b0: bcbf 0fbd 1b56 c6bc c895 14bc 369d 26bd
000002c0: cad4 603a 51df 543d 4bec 1dbd 3afc 29bd
000002d0: 9d4f f4bc e054 c53c f9b6 b23c 7917 223d
000002e0: 76fb 873b 3f74 393d b878 3dbd d858 44bc
000002f0: e5a0 c23c c7e4 01bd 7da4 2ebd 4cbf 42bd
00000300: e83a 99bc 1064 ed3a 410c a3bc 9d5e aabc
00000310: b5f2 233c da3c 33bc 3869 933c ab6a 423d
00000320: 5238 eebc f033 3f3d c632 553c ba13 063d
00000330: f683 3bbd 8faa 833c 8e6c 8d3c 8dbf 783c
00000340: 462e 223b 9b2c 4e3d 11d2 4c3d ac91 ba3b
00000350: 681d 3abd 2b75 28bc e1a1 45bd 3a56 f93b
00000360: 650a f43c 0ce0 373d ebd6 573c ff0a 843c
00000370: 128b 3a3d 5387 1abd a116 ec3c 422f 2c3d
00000380: 481a 24bd 821a 2fbd d13f c63c c587 a93c
00000390: e0e7 18bd f33f 12bd 8a65 ffbb aac3 563c
000003a0: c478 0e3d 8d60 2b3c bedd 00bd 8b2b 123d
000003b0: eaf7 8cbc f874 c5bc 46c2 7fbc 375c f03c
000003c0: abd3 1abd 4b90 1cbd 2c4c a23c c208 bdbc
000003d0: c1d9 86bb 7f9e 92bc 11f7 bdbb 9330 d23c
000003e0: bb85 f7bc 4312 bebb 68ba 26bd c0fd e83b
000003f0: 65bb 5b3c 1f5c bdbc 6c53 683c 4391 e73c

backbone.cnn.7.bias f4 [128]
0.049532637 0.04817417 0.045554906 -0.038353812 0.0017628397 -0.0330433 -0.04946798 0.003080329
-0.037664667 0.037003484 -0.029827476 0.0020541304 -0.04350866 0.012482237 0.03459392 0.050081395
-0.008665272 -0.047337 -0.002478869 0.014974164 0.042611156 -0.04916961 -0.043889735 0.015549036
0.011124592 -0.038767826 -0.02367885 0.028586023 -0.0033892374 0.033777367 0.0044434364 -0.027269995
0.012011609 0.004046331 0.029558329 -0.025464492 0.041197002 -0.047536444 -0.02944665 -0.028544407
0.045898654 0.01623344 3.562186e-05 -0.032958254 0.0050013787 -0.034167796 -0.0051659066 -0.013966557
0.048967645 -0.008380285 0.009404214 0.042009074 0.019449556 0.0132646505 -0.042428162 0.009373828
-0.02647143 -0.04001916 0.040070564 -0.050854348 -0.050998557 -0.03761982 0.020967297 0.0501749
-0.010018002 -0.019777376 -0.014180648 -0.028114147 -0.01779702 0.013411278 -0.025910903 -0.028012957
0.0025441789 -0.025701871 0.010018939 -0.009940987 -0.02233364 -0.027547026 -0.044420894 -0.049266774
-0.0042185592 0.007790138 -0.033847738 0.036791224 -0.010017071 -0.0038020606 0.022475755 -0.034012716
-0.039878152 0.011786257 0.0240483 0.0099548325 0.0066468767 -0.011336951 0.03389845 0.0016708181
-0.01295713 -0.048103806 0.021754296 0.031714305 0.003252445 0.0051577957 0.018407347 -0.01559572
0.021824718 -0.031116676 0.03226734 0.030103892 -0.0446778 -0.039449364 0.03889822 0.017727712
-0.047416274 0.045485556 -0.034978695 0.039362505 -0.010644724 0.01811212 -0.032161355 0.036141362
0.029686244 -0.037357166 0.022873437 0.050180722 0.03365267 0.01875829 -0.04024296 -0.004479779
00000000: bce2 4a3d 4752 453d c897 3a3d e318 1dbd
00000010: 160f e73a 6958 07bd f09e 4abd 58df 493b
00000020: 4446 1abd f790 173d c058 f4bc 979e 063b
00000030: 2336 32bd 4c82 4c3c 5bb2 0d3d 2622 4d3d
00000040: c9f8 0dbc 71e4 41bd 8574 22bb 3256 753c
00000050: 0989 2e3d 1366 49bd b9c5 33bd 62c1 7e3c
00000060: ec43 363c 03cb 1ebd 26fa c1bc 3c2d ea3c
00000070: f81d 5ebb 235a 0a3d 3f9a 913b 5365 dfbc
00000080: 57cc 443c 1697 843b 4f24 f23c e99a d0bc
00000090: 30be 283d 93b5 42bd 1a3a f1bc f6d5 e9bc
000000a0: 3a00 3c3d fefb 843c ae68 1538 3cff 06bd
000000b0: 9be2 a33b 88f3 0bbd c446 a9bb fcd3 64bc
000000c0: 4c92 483d 774d 09bc 2214 1a3c b511 2c3d
000000d0: ad54 9f3c fa53 593c 27c9 2dbd af94 193c
000000e0: 9dda d8bc 21eb 23bd 0821 243d a64c 50bd
000000f0: dde3 50bd 3e17 1abd 9cc3 ab3c 3284 4d3d
00000100: 8c22 24bc 2a04 a2bc f355 68bc a44f e6bc
00000110: 0ecb 91bc faba 5b3c 1a43 d4bc 6e7b e5bc
00000120: 3dbc 263b bb8c d2bc 7a26 243c 86df 22bc
00000130: 0af5 b6bc 4daa e1bc aff2 35bd f5cb 49bd
00000140: d73b 8abb 6a44 ff3b eda3 0abd 65b2 163d
00000150: a41e 24bc fe2b 79bb 131f b83c eb50 0bbd
00000160: 4657 23bd 251b 413c f100 c53c 9819 233c
00000170: 0bce d93b 9ebe 39bc 1ad9 0a3d 5aff da3a
00000180: 244a 54bc 7f08 45bd 1136 b23c dce6 013d
00000190: f926 553b ba02 a93b 01cb 963c 3185 7fbc
000001a0: c0c9 b23c 66e8 febc c22a 043d 709c f63c
000001b0: 1200 37bd a895 21bd bd53 1f3d b539 913c
000001c0: 9137 42bd 104f 3a3d d245 0fbd 943a 213d
000001d0: 3567 2ebc de5f 943c a0bb 03bd f708 143d
000001e0: 9130 f33c d403 19bd 1361 bb3c 4d8a 4d3d
000001f0: 62d7 093d fcaa 993c cdd5 24bd 1ccb 92bb

backbone.cnn.8.weight f4 [128]
0.99995136 1.0008118 0.99948645 0.9986027 1.000522 1.0026836 1.0011625 0.9978426
0.99861467 1.0013311 0.99952435 1.0006065 1.0006262 1.0000783 1.0012254 1.0036377
0.99952596 1.0001863 1.0010326 0.9995308 0.9997589 1.0006834 1.0029571 0.9989526
0.9990159 1.0000815 1.0000399 1.0004647 1.0009519 1.000886 0.99952567 1.0007602
1.0007093 0.9997445 1.0004263 0.9996363 0.9995334 0.99879116 0.99941367 0.99853003
1.0005469 1.0020312 0.9986003 1.0004834 0.9999849 0.9996956 1.0004416 1.0008955
1.0006626 0.99790806 0.9981974 0.99905014 0.99923277 1.0015054 0.99995095 0.99909586
1.00268 0.9992757 1.0008557 0.99913204 0.9989889 0.9998814 0.99774235 1.0000888
0.9997481 1.0010139 0.99912894 0.9983039 0.99963385 1.000925 0.9995661 1.0003692
1.0007625 0.9996776 1.0014808 0.9990121 0.9999629 0.9995569 1.0012758 1.0019819
0.9999072 1.0002652 0.9998395 1.0001507 0.99929744 0.9990933 0.9994744 1.0011333
1.0000062 1.0013524 0.9989254 0.9983083 1.000193 1.0007921 0.9996031 0.9994598
1.0002304 1.0003451 0.99944574 0.9990361 1.0010507 1.0025357 1.0007169 0.99894106
0.99928695 1.0010058 0.9985979 0.9997188 1.0006015 0.9998689 0.9997474 0.99997604
0.9991395 0.9992086 0.9996358 0.9995304 1.0002979 0.9993179 1.0000812 0.99915045
0.9988462 0.9984051 1.000363 1.0004172 1.0005246 0.99814284 0.9997187 0.99857754
00000000: d0fc 7f3f 9a1a 803f 58de 7f3f 6da4 7f3f
00000010: 1b11 803f f057 803f 1826 803f 9d72 7f3f
00000020: 36a5 7f3f 9e2b 803f d4e0 7f3f e013 803f
00000030: 8514 803f 9102 803f 2728 803f 3377 803f
00000040: efe0 7f3f 1b06 803f d621 803f 40e1 7f3f
00000050: 33f0 7f3f 6516 803f e660 803f 5cbb 7f3f
00000060: 82bf 7f3f ac02 803f 4f01 803f 3a0f 803f
00000070: 311f 803f 081d 803f eae0 7f3f e918 803f
00000080: 3e17 803f 41ef 7f3f f80d 803f 2ae8 7f3f
00000090: 6ce1 7f3f c7b0 7f3f 93d9 7f3f aa9f 7f3f
000000a0: ec11 803f 8f42 803f 45a4 7f3f d70f 803f
000000b0: 03ff 7f3f 0dec 7f3f 780e 803f 581d 803f
000000c0: b615 803f e776 7f3f dd89 7f3f c0c1 7f3f
000000d0: b8cd 7f3f 5431 803f c9fc 7f3f bfc4 7f3f
000000e0: d157 803f 88d0 7f3f 0a1c 803f 1ec7 7f3f
000000f0: bdbd 7f3f 3af8 7f3f 0b6c 7f3f e902 803f
00000100: 7eef 7f3f 3921 803f eac6 7f3f d890 7f3f
00000110: 01e8 7f3f 4f1e 803f 90e3 7f3f 190c 803f
00000120: fc18 803f dfea 7f3f 8630 803f 42bf 7f3f
00000130: 92fd 7f3f f6e2 7f3f ce29 803f f140 803f
00000140: ebf9 7f3f b108 803f 7bf5 7f3f f004 803f
00000150: f5d1 7f3f 94c4 7f3f 8edd 7f3f 2325 803f
00000160: 3400 803f 512c 803f 93b9 7f3f 2291 7f3f
00000170: 5306 803f f519 803f fde5 7f3f 99dc 7f3f
00000180: 8d07 803f 4f0b 803f addb 7f3f d4c0 7f3f
00000190: 6e22 803f 1753 803f 7e17 803f 9aba 7f3f
000001a0: 45d1 7f3f f520 803f 1da4 7f3f 92ed 7f3f
000001b0: b613 803f 69f7 7f3f 72ef 7f3f 6efe 7f3f
000001c0: 9bc7 7f3f 23cc 7f3f 22e8 7f3f 39e1 7f3f
000001d0: c309 803f 4cd3 7f3f a902 803f 53c8 7f3f
000001e0: 62b4 7f3f 7a97 7f3f e50b 803f ac0d 803f
000001f0: 3111 803f 4a86 7f3f 91ed 7f3f c7a2 7f3f
