output/contrastiveModel/ct1(2)/model_0.pt (torch, 800828 bytes, 26 tensors)

backbone.cnn.0.weight f4 [128, 31, 2, 3]
00000000: a523 08bd 33a9 4fbc 9686 56bd 8336 993c
00000010: 1429 243d 3ef3 4a3d a967 d43c 31dc 67bd
00000020: dc45 b13c c10e 953d e07f 1ebd 4a1c 4bbd
00000030: fe16 1c3c 682a 16bd dfa9 063c e656 2e3d
00000040: 526e 4cbd 9bec 8fbd 83ff 783d 1247 76bd
00000050: 82a0 833c 5013 7abd 93e0 153d c548 533c
00000060: 4f98 ca3c bcff 71bd 6f9b 493d 80b8 65bc
00000070: caa9 613c 8087 96bd 230f 923c df51 d2bc
00000080: 1d31 78bd 53d1 10bd 5960 8a3d eb08 14bd
00000090: ae61 de3a 965e 403b 46c6 4dbd 4533 863c
000000a0: 00ea f23c b768 703d f80f 0ebd dadb 68bd
000000b0: e12d 6cbd 3cdd a13c d624 15bc 65c3 153d
000000c0: c9e7 5f3d b9f1 a13c ad4d 443d a933 963d
000000d0: dbcf 373d 57f7 2d3d a0f3 60bd 1d19 c23c
000000e0: 2165 143c 4208 b83c a5da 85bd 8705 4c3d
000000f0: 5e4b 8c3d e0a5 89bd e371 7d3d 4ee7 6e3d
00000100: 9e12 25bc a8d3 3bbd faa1 123b 93a3 5ebd
00000110: e7be 313d 1638 2ebc 076a 4a3d e3e2 6c3d
00000120: c2d1 d7bc 4c21 173d 6596 69bc 4a54 7e3d
00000130: 7241 34bd 9aac 72bd 1edb 02ba b4cb 07bd
00000140: 61e2 dcbb fdcb ee3a a85b 44bd fa58 2ebc
00000150: 05d4 793d 04ac 4a3d eb76 7f3c 808e 973b
00000160: 2b5e 7bbc c8d9 e6bc fa6c 0ebc 26dc 95bd
00000170: 9468 51bc f141 bebc 7909 4b3c 4160 b73c
00000180: 5f66 91bd a644 463c 1efc 36bd c9ea a93b
00000190: 643e 35bd 54db ac3c 702c c73c 4b2b 81bd
000001a0: 73d7 e23c 566c a93c a0be 64bd b194 003d
000001b0: 66e2 563d 30a5 ffbc 67cd 4ebd f2b3 a4bc
000001c0: 39ce 1bbd 2a58 95bd 9fea 55bb 39dc 863d
000001d0: 740a 0d3c 4624 283c 2669 49bd ac62 00bd
000001e0: e3c0 94bc eb0d 1c3d 4495 d4bc d053 933c
000001f0: 7802 75bd ec0b 8f3d 531a 763d 28d0 5ebd
00000200: ac85 34bd d359 8b3d 54bc 123c 3ed6 88bd
00000210: 889f 8fbd effe f3bc 3576 923b d44d 83bd
00000220: 566c 69bd a328 183c 0b84 7dbc 1082 f53c
00000230: 56a0 7a3c 7125 703d eaf8 e53b 6864 d9bc
00000240: b146 5f3d cbb1 86ba 3d52 3bbd 4622 253d
00000250: dfdc 393d 7d5f d6ba c05a 813d e70e 98bc
00000260: abd4 8fba 040e 43bc e781 a0bc a864 b7bb
00000270: f48e 133d 9157 6f3d 2e2f a63d 03ad d2bc
00000280: 4277 6e3d f9ef 073d d813 163d c8ba c13a
00000290: 4126 993b 1d87 913d 54c4 98bc 88c8 1e3d
000002a0: ecab 10bd f0e2 793c f59d 62bd a7a6 49bd
000002b0: 10ca fdbc 42cc 78bd 3223 ad3c c805 683d
000002c0: e86f e13c 5a0b c53c cde3 f7bc f7f1 1bbd
000002d0: 9033 853d f825 5c3c b4e2 41bc d840 5fbd
000002e0: 86a4 8b3d f6d0 573d 741b dcbc 2ded 87bd
000002f0: bafb 383d f9a1 72bd e322 0abc 4bb5 063c
00000300: 7b68 3bbd fd09 3cbc 3538 99bd b060 55bd
00000310: e6b1 813d 1c1e 6c3a c5c6 933b 33cd 29bd
00000320: d8dd 2ab9 0960 393d 007f b03c dfcf 383d
00000330: b106 533d 2ce4 62bd 9fd6 573d beca 19bd
00000340: 208a 8c3d 7897 0e3d 7db9 8dbd 9c61 8a3d
00000350: 208c 91bc 3a79 953d fd8c 2a3d dc02 acbc
00000360: 4cc5 ac3a f319 16bd a6a0 75bd 77eb 823d
00000370: 2d55 8bbd f4f8 f2bc 8ada 3dbd 41e6 703d
00000380: 47f2 9e3c 33b0 05bd ca1e efbc fed2 eabc
00000390: 62ff fd3b a734 373d 56e2 323d fe00 b43b
000003a0: 1384 0c3a 838b aebc ce8d 7abc 139e 7d3d
000003b0: 6d63 013d 4a7a 063d 0088 243d ab23 203d
000003c0: 8215 2abd 5421 04bc 3db1 8abd 6e39 683d
000003d0: 2dc4 5fbd 031b 4d3d 4408 50b8 af4f 763c
000003e0: e95f 493d d7b2 813d 3a80 193d 2b92 873c
000003f0: 1c5b 50bd 0ab9 7f3c 0e7a 8b3d 87e7 d03c
-0.03323712 -0.012674618 -0.052374445 0.018702751 0.040078238 0.04954838 0.025928335 -0.056606475
0.021639757 0.07278205 -0.03869617 -0.049587525 0.009526966 -0.036661536 0.008219211 0.04256334
-0.049909897 -0.07027551 0.06079055 -0.06012637 0.016067747 -0.061053574 0.036591124 0.012895768
0.02473083 -0.059081778 0.0492205 -0.014021039 0.013773391 -0.07350063 0.017829483 -0.025673805
-0.060593713 -0.035355877 0.06756658 -0.036141317 0.0016966367 0.0029353253 -0.050237916 0.01638187
0.029652596 0.058693614 -0.034683198 -0.05685029 -0.05766094 0.019758813 -0.009103021 0.036563296
0.054664407 0.019768583 0.04792564 0.07334072 0.04487596 0.04247221 -0.05491984 0.023693616
0.009057314 0.022464875 -0.06535844 0.04980996 0.06850313 -0.06721091 0.06187619 0.058326058
-0.010075239 -0.045856148 0.0022374378 -0.054355215 0.04339495 -0.010633489 0.04941752 0.057833564
-0.026345138 0.03689699 -0.014257048 0.062092103 -0.044007726 -0.059246637 -0.00049917575 -0.03315325
-0.0067408537 0.0018218752 -0.047938973 -0.010641331 0.060993213 0.049480453 0.015592317 0.0046251416
-0.015342276 -0.028180018 -0.008692974 -0.073173806 -0.012781281 -0.023224803 0.012392395 0.022384765
-0.07099604 0.012101328 -0.04467403 0.0051854593 -0.044248953 0.021100678 0.024313182 -0.063070856
0.027690625 0.020681541 -0.055845857 0.031391803 0.052462004 -0.031206697 -0.050488856 -0.020105336
-0.038038466 -0.072922066 -0.0032641066 0.06584973 0.008608449 0.0102625545 -0.049172543 -0.0313441
-0.018158382 0.03809921 -0.025950082 0.0179843 -0.059816808 0.06984696 0.0600837 -0.054397732
-0.044072792 0.06804242 0.008956034 -0.066814885 -0.0701285 -0.029784648 0.004469658 -0.06411329
-0.056988083 0.009287032 -0.015473376 0.029969245 0.015297016 0.058629457 0.0070181983 -0.026537135
0.054510776 -0.0010276375 -0.045732725 0.04031589 0.045376655 -0.0016355362 0.06316137 -0.018561793
-0.0010973414 -0.011905197 -0.019593192 -0.005596716 0.036025003 0.05843312 0.081144676 -0.025717264
0.058219202 0.03318784 0.03664002 0.0014780397 0.0046737497 0.07105849 -0.018648304 0.03876546
-0.035320207 0.01525186 -0.05532642 -0.049231198 -0.03098014 -0.06074167 0.021134946 0.05664614
0.027519181 0.024053264 -0.030259991 -0.038072553 0.065039754 0.013436787 -0.011833835 -0.0545052
0.0681849 0.052689515 -0.02686856 -0.066370346 0.04516194 -0.0592365 -0.008431169 0.008221935
-0.045753937 -0.011476991 -0.07481424 -0.05209416 0.063327596 0.0009007172 0.004509779 -0.04145546
-0.00016295107 0.045257602 0.021544933 0.045120116 0.051520053 -0.055393383 0.052694913 -0.037546866
0.06862283 0.03481242 -0.06920145 0.06756899 -0.017767012 0.07298513 0.041638363 -0.020997457
0.0013181358 -0.03664584 -0.05996766 0.063925676 -0.06803355 -0.029659726 -0.046350993 0.058813337
0.019402636 -0.03263874 -0.029189486 -0.028665062 0.0077513913 0.044727948 0.043672882 0.0054932823
0.0005360257 -0.021306759 -0.015292598 0.06191833 0.03158896 0.032831468 0.040168762 0.039096516
-0.041524418 -0.008064587 -0.06772087 0.056695394 -0.054630447 0.05007459 -4.9598762e-05 0.0150336465
0.049163733 0.06332939 0.037475802 0.01654919 -0.05086814 0.015608082 0.068103895 0.025501026

backbone.cnn.0.bias f4 [128]
00000000: cbf5 143d 6b76 453d 45c8 11bc 0814 603c
00000010: e3a9 a13c fbf3 fbba 2fcb d0bc a6eb 82bd
00000020: be8d 6d3d e7df dabc fab0 e43c d49e 7b3d
00000030: 9b12 14bd 24d6 6f3d a16f 31bb c6c7 88bd
00000040: 146c c0bb 67cd 273d 3872 ebbc d3dd 65bd
00000050: 2f8e d9bc 3497 e2bc 33e4 953d c2ab 85bd
00000060: b883 703d 01de f33c 1673 8cbd 7f62 50bd
00000070: 404e 433d c3aa 8cbd a3d5 a63c 8ddb 8ebc
00000080: 7657 993d 3f7d 7c3c c37e ca3c 5f83 d33b
00000090: 4652 d3bc 7772 80bd 6469 50bd 58e3 36bc
000000a0: 0327 823d e3ba 293d c0d6 2a3d d30d 853b
000000b0: be51 2cbc 513d 84bd 39fb af3c 47fb 6e3c
000000c0: a641 f93c a129 183d 5600 44bd 066e b93c
000000d0: aac8 c0bc c8c8 a7bc ee8a 923c 7840 6ebd
000000e0: 4f49 2a3d 140a b83c 9f97 263d a945 563d
000000f0: 2ad2 2c3d 54aa 16bd 9cc2 f33c 6e2e 35bd
00000100: 85db cc3c aa30 d3bb 534e 613d 88aa 57bb
00000110: f1de 5b3d 36bc 9d3c 543a 31bd a431 f13c
00000120: f69c 2d3d e8b2 38bb 5fb5 b8bc 2d81 adbb
00000130: 72a5 80bd 26d4 353d 50de 053c 7755 683c
00000140: 9666 bcbb 058f 5bbd b18c 453d 1f16 333d
00000150: e25f 653d 340b 2a3c 11c9 773d 1f88 193d
00000160: 43dd 643d f0d3 85bd 5760 7e3d 012c a63c
00000170: 82f3 3abd 06cf 293d 5698 c93c 3c25 473d
00000180: a91e 6c3d 9b94 453d 1de3 43bd 4db3 183d
00000190: b11b d6bb b120 ccbc fbaa 223c b240 1e3c
000001a0: 52bc 853c 6924 753d cfb7 b2bc 1ea4 e7bc
000001b0: d246 02bd 769d 70bd 75ef 8abd 77da 4e3d
000001c0: d902 163d 335a 75bd c492 1a3d f8df 753d
000001d0: 087f 1dbc a09b a2bb c2d0 8cbd de02 91bd
000001e0: 06ea 853d c78f f03c f651 2fbd 14cb 9bbc
000001f0: d15c 19bd ad25 96bc 3f00 4dbc dda9 4c3c
0.03636722 0.048208635 -0.008897846 0.013676651 0.019734329 -0.0019222492 -0.02548751 -0.063926026
0.057996504 -0.026718093 0.02791642 0.061430767 -0.036150556 0.05855383 -0.0027074593 -0.06678729
-0.005872259 0.04096737 -0.028740987 -0.05611975 -0.026557056 -0.02765999 0.07318916 -0.06526901
0.058719367 0.029768946 -0.068578884 -0.050875183 0.047682047 -0.06868508 0.020365542 -0.017438674
0.07487385 0.01541072 0.024718648 0.0064548696 -0.025796067 -0.062718324 -0.05088176 -0.011162601
0.06355097 0.041437995 0.041708708 0.004060486 -0.010517536 -0.06457008 0.021482097 0.014586276
0.030426811 0.037149075 -0.047851883 0.022635471 -0.023533184 -0.020481482 0.017888512 -0.05816695
0.04157382 0.022465743 0.04067194 0.052312527 0.042192616 -0.03678353 0.029755883 -0.044233732
0.025007019 -0.00644501 0.055006336 -0.003290804 0.05367941 0.019254785 -0.043268517 0.029442616
0.042386018 -0.0028182808 -0.022547422 -0.00529494 -0.06281556 0.044391774 0.008170679 0.014180533
-0.005749534 -0.05360319 0.048229877 0.04372227 0.055999644 0.010378648 0.060494486 0.03748333
0.055875074 -0.065345645 0.062103596 0.020284655 -0.045642383 0.0414572 0.024608772 0.048619494
0.057646427 0.048237424 -0.047824014 0.03728037 -0.006534063 -0.024917932 0.00992846 0.009658979
0.01632515 0.059849177 -0.021816162 -0.0282765 -0.03180582 -0.058743916 -0.06783954 0.050501313
0.03662381 -0.059900474 0.037737623 0.060028046 -0.009612806 -0.0049623996 -0.06875755 -0.07080625
0.06538777 0.029365433 -0.042802773 -0.019017734 -0.037442032 -0.018328512 -0.012512266 0.01249167

backbone.cnn.2.weight f4 [128]
00000000: b711 803f 43d9 7f3f 1066 803f 8af4 7f3f
00000010: 4dc1 7f3f 30d5 7f3f 62f2 7f3f d638 803f
00000020: d971 7f3f 2344 803f a0c8 7f3f 824c 803f
00000030: 84ea 7f3f e8af 7f3f 7ff1 7f3f 4ab7 7f3f
00000040: 504a 803f a70c 803f 13e6 7f3f f781 7f3f
00000050: 7314 803f a706 803f 0df5 7f3f 1827 803f
00000060: e244 7f3f a4c9 7f3f 6b44 803f f8b0 7f3f
00000070: 82cb 7f3f f50f 803f 0778 7f3f 91f8 7f3f
00000080: 4c1f 803f a9d0 7f3f 56c6 7f3f f7dd 7f3f
00000090: 7838 803f a780 7f3f e138 803f fece 7f3f
000000a0: 54a1 7f3f 0e28 7f3f 92f4 7f3f 081e 7f3f
000000b0: b834 803f afeb 7f3f 02ca 7f3f 9807 803f
000000c0: df90 7f3f 641c 803f 77d8 7f3f f515 803f
000000d0: 7e21 803f d00d 803f efd4 7f3f 13bc 7f3f
000000e0: 79bd 7f3f ff4c 803f 8a06 803f 161e 803f
000000f0: c35a 803f e533 803f e1e2 7f3f 9803 803f
00000100: d0d1 7f3f a17c 803f 87c5 7f3f 6af6 7f3f
00000110: 221f 803f 6e27 803f ed0b 803f 7322 803f
00000120: 9ed4 7f3f 62db 7f3f 6294 7f3f 4731 803f
00000130: e51c 803f 2a11 803f 9301 803f c3c3 7f3f
00000140: 158b 7f3f eba2 7f3f 7d02 803f 46b6 7f3f
00000150: d6ca 7f3f 0e96 7f3f a5c6 7f3f a811 803f
00000160: 3939 803f 72d2 7f3f 2f32 803f 2d9e 7f3f
00000170: 9ec4 7f3f 5dde 7f3f e1f3 7f3f 47bb 7f3f
00000180: 20bb 7f3f 81bd 7f3f f463 803f 97fc 7f3f
00000190: 3d33 803f 27a1 7f3f 8501 803f cfca 7f3f
000001a0: ea0d 803f 1224 803f 6fe6 7f3f 94f8 7f3f
000001b0: 6beb 7f3f 1837 803f 4ff9 7f3f 6f05 803f
000001c0: 5b4c 803f 6045 803f f7c5 7f3f d7ca 7f3f
000001d0: ea1d 803f a60d 803f a10d 803f 9439 803f
000001e0: 5419 803f 4900 7f3f e0c4 7f3f 67d6 7f3f
000001f0: ed1c 803f 191d 803f e7fc 7f3f ab2a 803f
1.0005406 0.9994089 1.0031147 0.9998251 0.9990433 0.99934673 0.9997922 1.0017345
0.9978309 1.0020794 0.99915504 1.0023348 0.9996722 0.99877787 0.9997787 0.9988905
1.0022678 1.0003861 0.9996044 0.99807686 1.0006241 1.000203 0.9998329 1.001193
0.9971448 0.99917054 1.002088 0.9987941 0.99919903 1.000487 0.9979252 0.9998866
1.0009551 0.99927765 0.9991201 0.99948066 1.0017233 0.9980568 1.0017358 0.9992522
0.9985554 0.99670494 0.9998256 0.996552 1.0016088 0.99969 0.99917614 1.0002317
0.9983043 1.0008664 0.99939674 1.0006701 1.0010221 1.0004215 0.99934286 0.99896353
0.9989849 1.0023497 1.0001996 1.0009181 1.0027698 1.0015837 0.99955565 1.0001097
0.99929523 1.0038034 0.9991078 0.99985373 1.0009501 1.0012033 1.000364 1.0010513
0.99933803 0.99944127 0.9983579 1.0015038 1.0008818 1.0005238 1.000048 0.99908084
0.998216 0.9985797 1.0000759 0.998875 0.9991888 0.9983834 0.9991248 1.0005388
1.0017463 0.9993049 1.0015315 0.9985073 0.9990939 0.99948674 0.99981505 0.9989514
0.99894905 0.99898535 1.0030503 0.99994797 1.0015637 0.99855274 1.0000464 0.99918836
1.0004246 1.0011008 0.9996099 0.99988675 0.99968594 1.0016813 0.9998979 1.0001658
1.0023302 1.0021172 0.99911445 0.99918884 1.0009129 1.0004165 1.0004159 1.0017571
1.000773 0.9960981 0.9990978 0.99936527 1.0008827 1.000888 0.99995273 1.0013021

backbone.cnn.2.bias f4 [128]
00000000: cd6c ddba d809 00ba 2a93 c6b6 91ad 6f3b
00000010: 3d51 cbb9 9da5 22ba 8d9c ccb9 2ec1 ab3a
00000020: 5c05 833a 579b d43a 45e9 173a d1dd 393a
00000030: 555e 6e3a 8248 d4b9 7729 083b 42be ddba
00000040: 08ed b63a 29b4 edba 193f c4ba aeec 293b
00000050: bb90 1d3a 8eb7 dd3a 2561 b3ba e066 f638
00000060: e60d 15bb e1e7 193a b108 183a e101 a0b9
00000070: 6929 a039 6b01 4bbb c43f 76ba 637d dc3a
00000080: 38e6 953a 277d 053b 3c0b a9ba a436 ab3a
00000090: fb20 c238 e377 ce39 9d6f 4c3b 1a44 80b9
000000a0: 0e76 383b fa4f c2b6 a749 b53a 91f2 e03a
000000b0: dd52 013a cc50 04ba a7c4 3aba 451e 423b
000000c0: f80c 3f3b 983d ed3a dc17 fab9 ba1d b6b9
000000d0: 4ae4 b23a 2d22 b3ba f60a a33a 1b32 85ba
000000e0: 7fa6 0739 fde8 913a fa10 25ba c714 5f3b
000000f0: 8bd1 093a a1fe 133a e2ce 643a 7801 2dbb
00000100: c28b ee3a 7a3f de3a 541d 3e3b 8574 6b3b
00000110: 8f8c 383a cf76 053b 92f8 f439 6d63 f13a
00000120: 31bd 073b e42a 92ba f319 bc3a a14c 1f37
00000130: ce35 02ba 2dd9 ba39 58af 1d3b bf45 4ab9
00000140: 3d38 96b9 d047 75ba ebbb 0ab9 967e 84ba
00000150: 9bb6 ea3a 745b ccba 606c 193b 0029 93ba
00000160: cc20 4dbb a29c 9aba 7cfa 9c3b 7ef8 a5b9
00000170: c171 713b ae1a 75ba adf4 a93a 1fe7 053b
00000180: 21b8 1a3b bd12 b53a 88ad a6ba d8ba d0b9
00000190: 0328 a03a e3d1 ba3a 733b f2ba fe44 f73a
000001a0: 3f37 f7b7 ac70 623a 979e 1cb9 3f0d 123b
000001b0: e985 9e39 1f35 cc3a 31b6 8c3b 02dc 2d3a
000001c0: 73cc baba be1f e039 bf86 ef37 476a 0dba
000001d0: e09f ceb9 e1f8 2b3b e9b0 7aba 39cb 13bb
000001e0: ac20 5ebb 3188 b4b8 a334 9a3a 3fd5 89ba
000001f0: 487f 823a 5bf4 bfb9 4506 f9ba f2af 9539
-0.0016893387 -0.00048842793 -5.917992e-06 0.003657196 -0.00038779704 -0.0006204488 -0.00039026552 0.0013103837
0.0009996104 0.0016220611 0.0005794953 0.0007090243 0.0009093036 -0.00040489814 0.0020776668 -0.0016917663
0.0013956139 -0.0018135357 -0.0014972418 0.0025928426 0.0006010641 0.0016915665 -0.0013685568 0.00011749356
-0.002274388 0.00058710395 0.0005799635 -0.00030518978 0.0003054843 -0.0030976187 -0.0009393657 0.0016822036
0.0011436408 0.0020368786 -0.0012897025 0.0013062549 9.256784e-05 0.00039380704 0.0031194456 -0.00024464802
0.0028146538 -5.790961e-06 0.0013831154 0.0017162134 0.0004933307 -0.000504744 -0.00071246404 0.0029620093
0.0029152017 0.0018100021 -0.00047701492 -0.00034735893 0.0013648358 -0.0013666801 0.001243918 -0.0010162027
0.00012936628 0.0011132058 -0.000629678 0.0034039484 0.00052573596 0.00056455476 0.00087283377 -0.002639858
0.001819961 0.0016956173 0.002900918 0.0035927605 0.0007039988 0.0020365005 0.00046724506 0.0018416472
0.0020712132 -0.0011151698 0.0014350995 9.49498e-06 -0.0004967124 0.00035638493 0.0024060812 -0.00019290204
-0.0002865213 -0.0009356709 -0.0001323071 -0.0010108526 0.0017907204 -0.001559122 0.0023410544 -0.0011227429
-0.0031300066 -0.0011795948 0.0047906023 -0.00031656394 0.0036841484 -0.0009349984 0.0012966596 0.0020431948
0.0023608285 0.0013814789 -0.0012716511 -0.0003981206 0.0012218956 0.0014253225 -0.0018480852 0.0018865166
-2.947042e-05 0.0008638005 -0.00014936399 0.0022285727 0.0003023588 0.0015579796 0.00429418 0.000663221
-0.0014251604 0.0004274826 2.8553766e-05 -0.00053945597 -0.00039410498 0.0026240873 -0.0009563105 -0.002255155
-0.0033893986 -8.6084365e-05 0.0011764955 -0.0010515823 0.0009956146 -0.00036612418 -0.0018999061 0.00028550584

backbone.cnn.2.running_mean f4 [128]
00000000: e1f7 ea3c e484 5c3d ef97 b03a 6baa b43d
00000010: 6165 cc3d aa0f ee3d 27a3 fc3c 51da 573d
00000020: 79e7 ca3d e03f 2d3c 72fe a93c 922a 5d3d
00000030: fe9e 3a3d 162a 3b3e e6b0 8b3c a9f5 1b3c
00000040: 8eb4 123d d1f5 403d 97fa bb3c 7cfe 063d
00000050: 4718 d63c c0fa f33c 2060 aa3d 1852 a73c
00000060: 6f80 113e 654f 6e3d 3c07 333c d1cb c53b
00000070: 1e77 673d fbfd 383c f224 a53d 803a 193d
00000080: 82af f33d 47af f63c 56fb c13c 000b a33c
00000090: 2eab 353b 2000 db3d 6bfa 0e3c dd75 5d3d
000000a0: bc4c 563d da60 b93d ba74 4a3d 1f65 b63d
000000b0: 4ec9 e73c 7e38 ff3c 37b8 c33d 4ca1 f43c
000000c0: 0f15 7d3d 6a54 9e3d ff16 7c3d 28c1 1f3d
000000d0: e46e 2c3d ce75 673d 192a b03d 54fa 143d
000000e0: 1295 c93d 3063 d33c 4d19 383d 0c8d 743d
000000f0: cb90 513d fd36 193c 785d 353d 9dc2 6e3d
00000100: 1aa0 103e cdd5 7b3a 1f6d cd3d b2ff 983c
00000110: f465 5a3d eb16 923d 613e 2a3c b75b 093d
00000120: 5077 963d 4fcf f83a f90f 283d 5ddc d63c
00000130: d4e5 973a 9aa5 a43d b04c 9c3d a006 033d
00000140: 7a9a 243d 49fb 953c cfcf bd3d 5619 873d
00000150: 6005 bb3d 5ad6 0f3e 180f f53d 81ae 513d
00000160: e548 793d 7f06 043d 2579 aa3d 36f1 6e3d
00000170: 4c8b 553c 0fc3 8c3d 2547 f23c 3912 2f3e
00000180: ff39 f23d 976d 933d 6778 203c 69bb a83d
00000190: 4544 5f3d 3fd7 c13c afa9 373d dfa8 a53d
000001a0: 918b 513d 14e1 b33d 18b0 ba3d f698 643d
000001b0: 583b 6e3b a720 113d 0f8e 9e3c 04a0 523d
000001c0: cddf 583d e2ad 083c b00f e53c 36c1 163e
000001d0: d97b 753c b47d f03c d427 1b3c 3aab 3e3b
000001e0: 48d1 893d 83c6 e63c 9d81 c23c 123b b63c
000001f0: 263c 873c a4d9 093c 7de5 de3d 9a7c 0e3d
0.028682651 0.053837672 0.0013473014 0.08821567 0.09980274 0.116240814 0.030839516 0.052698437
0.09907431 0.010574311 0.020751212 0.053995676 0.045561783 0.18277773 0.017052125 0.009519019
0.03581672 0.04710943 0.022946639 0.03295754 0.026134623 0.029782653 0.08319116 0.020424888
0.1420915 0.058181185 0.010927018 0.0060362597 0.056510083 0.011291022 0.080636874 0.037409306
0.1189871 0.030112876 0.023679417 0.019902706 0.002772044 0.10693383 0.0087266965 0.05406748
0.052319273 0.09051676 0.049427725 0.08906006 0.028294232 0.031154867 0.095566206 0.029862069
0.06178766 0.077309445 0.06154537 0.039002568 0.04209794 0.05650883 0.086017795 0.036371544
0.09842886 0.025804132 0.044946004 0.059704825 0.051163476 0.009351489 0.044278592 0.058291066
0.14123574 0.0009606749 0.10030579 0.018676613 0.053319886 0.071332775 0.010390849 0.03353473
0.07346976 0.0018982681 0.041030858 0.026228124 0.001158888 0.080393985 0.076318145 0.03198874
0.040186383 0.018308299 0.09268152 0.06596629 0.091318846 0.14046612 0.119657695 0.05119181
0.060860533 0.032232758 0.08323888 0.058335505 0.013033699 0.06873142 0.02957494 0.17096795
0.11827468 0.07198637 0.009794331 0.08238871 0.054508466 0.023662208 0.044839557 0.0808885
0.05115849 0.087831646 0.091156185 0.055809937 0.003635129 0.03543153 0.019354848 0.051422134
0.052947808 0.008342238 0.027961582 0.14722142 0.014983141 0.029356815 0.009469945 0.0029093758
0.0672937 0.02817083 0.023743445 0.022244964 0.016508173 0.008413706 0.10883615 0.034786798

backbone.cnn.2.running_var f4 [128]
00000000: 859d b03a 923c 8c3b 4826 3939 f884 473c
00000010: 9254 683c 7465 d63c b422 a23b 72dd f43b
00000020: 1f0d 5e3c d855 a03a 0e9a f43a bf6e 413b
00000030: 630b cb3b c96c bf3c 132b 283b 1fd6 ac3a
00000040: 8c54 a33b 6b4a 683b 7d6e 513b 5459 9f3b
00000050: dbad 903b fd97 6b3b eb49 cd3b 3130 5c3b
00000060: c28b 893c d00a c73b d97b b43a 9dd9 8e3a
00000070: 0df3 be3b 00a0 003b 6955 283c 80f2 e33b
00000080: e626 383c 07ee 8d3b 1cf5 5b3b 0f26 033b
00000090: 5407 9139 5839 bf3c 21c0 aa3a 7cec 183c
000000a0: 660f 743b 372a 2f3c e7e6 853b 7dda 5f3c
000000b0: 0eda 603b d698 b03b e82d 523c 17d5 493b
000000c0: d9e0 b63b ae17 1f3c fc50 2e3c a88a 853b
000000d0: 6c0f bf3b 31a9 083c 388c 3c3c 6442 c13b
000000e0: a628 383c 8287 023b 9df0 4b3b 1a30 933b
000000f0: 4a70 633b a944 9d3a adca 803b 2e1e 453c
00000100: 74bc d93c 3894 9b38 654c 313c 587c 2b3b
00000110: e4e8 8a3b b08d 1a3c ad1d e63a c71b 253b
00000120: 89c1 eb3b db71 7b39 9393 0e3c 124b a03b
00000130: 8517 e238 6f8a e03b 0dd5 6b3c 84fd 663b
00000140: e973 ca3b 7c5d 193b ad58 363c da94 d23b
00000150: 2777 043c 1c79 af3c a966 973c c737 cf3b
00000160: 9a85 8a3b ebeb 9d3b 30d8 f93b 4aaf e13b
00000170: 694e f33a 6661 f23b 332b 383b 66a5 b43c
00000180: cedc 763c 1b80 283c 4ed9 8f3a d865 103c
00000190: 6b5a 263c f28c 573b acaf ab3b 45eb 523c
000001a0: 1d78 a83b f64d d93b e2b2 983c d077 1e3c
000001b0: 8153 b739 0dfd 923b cd13 5d3b aefe 8d3b
000001c0: 1848 943b 57ad 683a 95a5 d03a 22c2 c93c
000001d0: add4 063b 484f 9e3b 9af0 913a 2d91 a739
000001e0: 7e47 d13b 96f1 0f3b 06d8 853b 37bd 433b
000001f0: 9d27 383b 5116 7d3a 3c81 f83c 509b 6b3b
0.0013474679 0.0042796815 0.00017657236 0.012177698 0.014180319 0.026171423 0.0049479846 0.0074726874
0.013552933 0.0012232615 0.0018661635 0.0029515473 0.0061964258 0.023367302 0.002566044 0.0013186372
0.004984444 0.0035444747 0.0031956725 0.0048629437 0.0044152564 0.0035948746 0.006264915 0.003359806
0.016790275 0.006074287 0.001376982 0.0010898594 0.0058273138 0.0019626617 0.01027427 0.0069563985
0.011239743 0.0043313536 0.0033562845 0.0020011698 0.00027662015 0.023342773 0.001302723 0.009333726
0.0037240623 0.010691217 0.0040863636 0.0136629315 0.0034309658 0.005389313 0.012828328 0.0030797177
0.005581003 0.0097102355 0.010639425 0.004075367 0.005830696 0.00834112 0.01150804 0.005897807
0.01124016 0.0019917195 0.0031118758 0.004491818 0.003470438 0.0011998612 0.003930411 0.012031121
0.02657912 7.418584e-05 0.0108214365 0.0026166644 0.0042391885 0.009433195 0.0017556451 0.0025193559
0.007194702 0.0002397964 0.008702177 0.0048917616 0.000107809006 0.00685244 0.014394057 0.0035246322
0.0061783683 0.0023401668 0.01112954 0.006426436 0.008085049 0.021420054 0.01848157 0.006323788
0.0042273523 0.0048193834 0.0076246485 0.006887351 0.0018562797 0.0073968647 0.002810192 0.022051524
0.015067292 0.010284449 0.0010974796 0.008813344 0.010153393 0.0032890406 0.0052394476 0.012873475
0.0051412717 0.006631608 0.018639985 0.00967212 0.00034966695 0.0044857324 0.0033733726 0.0043333387
0.004525196 0.00088759273 0.0015918488 0.024628703 0.0020573542 0.0048312284 0.0011134327 0.00031960887
0.0063866964 0.0021964065 0.00408459 0.002986742 0.0028099783 0.00096545095 0.030335061 0.0035950728

backbone.cnn.3.weight f4 [64, 128, 2, 3]
00000000: 255e a93b 8ca3 74bc 5b46 3aba ae9b 153d
00000010: 0ea1 a93b 42ba 223d 6311 093d 325b bdbc
00000020: 24e5 83bc 41d3 1abd 9166 ce3c 2748 8bbc
00000030: f2e5 fa3b 936e 923c fadd ee3c c53a 4e3c
00000040: a408 ce3c 295b ca3c bf73 b4bc fd15 cebb
00000050: aa1b e83c 5d37 6a39 1740 0e3d 41d8 0cbb
00000060: 57be ffbc c9c2 cc3c 7ad5 86bc 73fe e5bc
00000070: 012d 59bb 30e8 b6bb f28e 5bbc 6dbf 123c
00000080: 0959 fe3c f708 dbbc 646f 1c3c e33b 013d
00000090: daab 9fbc dd70 cbbc 1bf8 b03c fc2a 433c
000000a0: b642 7eba 74f7 673a 2893 53bb 8488 06bd
000000b0: 422e 00bd a096 b83c 2091 88bc 52cc 193c
000000c0: bdb3 e5bc bd42 aa3b c967 6d3c 7ba9 22bb
000000d0: aac3 05bd 9d89 eb3c bdb4 a6bb 84e7 1bbd
000000e0: 4fc0 c2bc 4685 3a3b 9e09 aabb 696e b13c
000000f0: 0828 93bc 96d0 ab3c fed5 e73b 7833 f1ba
00000100: 5b45 f3ba dab8 003d 4b42 08bc 79bd a83c
00000110: c7fb b6bc a2fd d43b e7a3 bbbb 38cb 913c
00000120: 463c fe3c efc6 2cba 1fcf 73bc 0fdc 3a3c
00000130: a02f 4bb9 061d 253c a026 ad3c 3c51 cc3c
00000140: 4d02 ef3b a633 c63c a840 733c 4f2c b03b
00000150: 4b31 0cbd 42af 11bd ebf3 8e3c 3813 a8bc
00000160: 0945 e2bb 446a 73bc 4607 553a 35bb 6abc
00000170: 59dc 60bc 3054 9dbc e806 fbbc db2f 3c3c
00000180: fdc1 073d eaff c23c 8955 563c 744b 9abc
00000190: 9069 cfbc fcac 0fbd 19af 4bbb f193 0f3d
000001a0: 1a2b d83c 5ab7 c73c 0393 8b3c 20e5 d33b
000001b0: c576 753b 1de5 b9bb f1d3 973c 04ab 18bd
000001c0: 4037 27bb 4e78 c03b bd2f 1f3c 8ef5 dfbc
000001d0: 716c 59bc 3e1c c0bc 035d a3bc f848 52bc
000001e0: 2a6c 9ebb 8a0c 533c b162 f1bc 5a47 073d
000001f0: 27b5 f5ba 7321 adbc d7b9 afbc ee9d b2ba
00000200: 808d febc 6b84 113d d8d3 d4bc 72de f73c
00000210: a5f2 1e3c 1376 f43c 606e cc3c 5bdb 253c
00000220: 5175 48bc e108 813c f987 f5bc 5450 47bc
00000230: 9015 84bb d317 113d 3a16 d8bc 0872 e0ba
00000240: 99de 053d 07ef 4abb 92e0 9ebc 5232 833c
00000250: 14cb 313c 3a77 ec3b 42f2 c43c e99c 40bc
00000260: 183b 0dbd 4447 cebc 80da 02bd d743 173b
00000270: 5154 063d f392 f1bc d0c9 bcbc 4da3 b7bc
00000280: 75ae ef3c 9b9d c63c 81c9 13bc 4929 073d
00000290: de11 20ba 3653 b9bb c578 f13c 227a d3bc
000002a0: 9574 28bb dd3a 6c3c 7978 02bb 3b23 e3bc
000002b0: 8ed1 2abc d9b8 72bb ab36 3c3c b5a5 8fbc
000002c0: 8293 95bc 960b bdbc 1809 eb3c 93ba cdbc
000002d0: 946d 9f3c 928a dc3b 15e0 2cbc df65 aeba
000002e0: eb09 08bd 5db7 8e3b 76e9 fa3c 6de4 ec3b
000002f0: ffe3 763c bb22 77bc b68b b2bc e6db 7cbc
00000300: fca8 71bc 5609 ddbc 1c54 a9bc ecda e83c
00000310: 0288 583c 03f7 033d 8965 613c 9c22 f4bc
00000320: 181b b5bb a8f7 033d 0207 91bc 6e23 c0bc
00000330: 3eb7 653c 62c8 2a3c e1bf b93c 480c 8ebb
00000340: 2dc2 cdbc ca66 143d 621d a93c 9aa3 1b3d
00000350: 4d2c 493c 751a df3c d53e 75bc e8c0 b73b
00000360: 7ef2 abbc a723 f63c fbda 88bc f0a9 56bb
00000370: a546 c93c dc66 ccbc b99a 793c aa12 b33c
00000380: 99d9 9ebc 0599 c23c 87e6 bfbc c72a cebc
00000390: d675 6e3b 775e 9d3c 669b b8bc 6cc9 753c
000003a0: 449e 3dbc c346 173c 0253 c3bc 9d75 0f3d
000003b0: 81c1 f33c 7366 943b c81f 07bd cd29 6f3c
000003c0: fac9 643c 02c3 e83c ea88 f13c f208 7dbc
000003d0: a042 04bd df2d ddbc 8601 983c 1b36 8ebc
000003e0: 64e6 53bc 9e33 b03b dc6c 0bbd bc24 86bc
000003f0: 3158 88bc 3845 82bc d0eb af3c e9b0 b2bb
0.0051686936 -0.014931571 -0.00071058207 0.03652542 0.00517667 0.03972841 0.033463847 -0.023114774
-0.016100474 -0.037799124 0.025195392 -0.017002178 0.007656806 0.017874992 0.029158581 0.012587254
0.025150605 0.024701672 -0.022027848 -0.0062892423 0.028333504 0.00022336603 0.03472909 -0.0021491202
-0.03121869 0.024995225 -0.016459215 -0.028075432 -0.0033138397 -0.005581878 -0.01340078 0.008956772
0.031048315 -0.026737673 0.009548042 0.031551253 -0.019491125 -0.02483409 0.02160268 0.011912104
-0.0009699272 0.0008848824 -0.0032283757 -0.032845035 -0.031294115 0.022532761 -0.016670763 0.009387093
-0.028039807 0.005195944 0.014490076 -0.0024820257 -0.032657303 0.028752143 -0.0050874637 -0.038062587
-0.02377334 0.0028460785 -0.0051891347 0.021659093 -0.017963424 0.020973485 0.0070750704 -0.001840218
-0.0018560098 0.03142629 -0.008316587 0.02059816 -0.022336854 0.006499962 -0.005726326 0.017797098
0.0310346 -0.0006590923 -0.0148809245 0.011405005 -0.0001937733 0.0100777205 0.021136582 0.02494108
0.0072939754 0.02419455 0.014846958 0.0053763757 -0.034226697 -0.03556753 0.017450294 -0.020516977
-0.0069052023 -0.014856879 0.0008126389 -0.01432686 -0.01372441 -0.019205183 -0.030642942 0.011486019
0.033143986 0.02380367 0.013081917 -0.018834807 -0.02531889 -0.03507708 -0.0031079708 0.035053197
0.02638774 0.024379421 0.017037874 0.006466523 0.0037454825 -0.0056730644 0.018533679 -0.03727247
-0.002551511 0.0058737164 0.009715972 -0.02733877 -0.013270483 -0.023450967 -0.019941812 -0.01283478
-0.0048346715 0.0128814075 -0.029466005 0.03302703 -0.0018746004 -0.021134114 -0.02145092 -0.0013627389
-0.031073332 0.035526674 -0.025979921 0.030257437 0.009701406 0.029841458 0.024954975 0.010123099
-0.012235002 0.015751304 -0.029972063 -0.012165148 -0.0040308908 0.03542311 -0.026377786 -0.0017123828
0.03268299 -0.0030965225 -0.019394193 0.016015206 0.01085164 0.0072163614 0.024041299 -0.01175616
-0.034480184 -0.025180466 -0.03194666 0.0023081207 0.032795254 -0.029489016 -0.02304545 -0.022416735
0.029257992 0.024245074 -0.00902021 0.032998357 -0.0006106178 -0.0056556715 0.029476533 -0.025815073
-0.0025704254 0.014418331 -0.0019908233 -0.02772676 -0.010425938 -0.0037036447 0.011487643 -0.01753507
-0.018258814 -0.023076814 0.02869086 -0.02511338 0.01946143 0.006730386 -0.010551472 -0.0013305506
-0.033212584 0.0043553547 0.030628901 0.007229379 0.015069007 -0.015083964 -0.021795135 -0.015433287
-0.014749762 -0.02698199 -0.02066999 0.028424703 0.013216021 0.03221799 0.013757118 -0.02980166
-0.0055269115 0.032218605 -0.017703537 -0.023454394 0.014020739 0.010423752 0.022674503 -0.00433496
-0.025117004 0.03623084 0.020643894 0.03799782 0.012278629 0.027234295 -0.014968594 0.005607713
-0.020989653 0.030046297 -0.01670598 -0.00327551 0.024569819 -0.02495139 0.015234643 0.021859486
-0.019390868 0.023754606 -0.023425354 -0.025166882 0.0036386154 0.019210083 -0.022535037 0.015001636
-0.011573378 0.0092331795 -0.023843292 0.035024274 0.029755356 0.0045288145 -0.032989293 0.014597368
0.013964171 0.0284133 0.029484231 -0.015444027 -0.0322901 -0.026999412 0.018555414 -0.017359784
-0.012933347 0.005377247 -0.034039363 -0.016374938 -0.016643615 -0.015902147 0.021474749 -0.0054532182

backbone.cnn.3.bias f4 [64]
00000000: 322a 1e3c 0990 5c3c b73a 01bd bd6d 33ba
00000010: 76fb 14bd ecdc 1abd ee2a bfbc 9263 d53c
00000020: 95d3 a5bc 8809 c4bc 1efe 0ebd a4e8 ab3c
00000030: a710 6fbc a570 64bc eb39 1bbb 7fa9 85bb
00000040: ed33 c3bc d7aa b63c 206f b5bc 30b5 b83c
00000050: 9faf 073d 1510 9d3c 88ce 493b 2fee 0fbb
00000060: 7423 1fbd ce29 02bc e226 24bd 6c94 0b3c
00000070: 6b2e 4d3b 83d5 58bc 5941 20bd fb23 6cbb
00000080: 530d d6bc 51c7 84bc 2710 b5bc 2b15 4a3c
00000090: 3bdb 90bc cc86 843c 547e 6cbc 3472 5a3c
000000a0: 94f0 803c 0329 abbc e66d f33b 0e7c d5bc
000000b0: 5c57 bebb a99a 0a3c d77a 25bd 56f5 233c
000000c0: 4e82 80bb cfa7 0dbd 40a2 77bc 42cc 083b
000000d0: 4a76 4abb acb4 993b 9911 01bd 6b51 81bc
000000e0: d5ed c1bc 9bdd 4bbc 8f59 08bb 6300 02bd
000000f0: 28d4 a43b 3c4d 0abc e531 c73c 2454 833c
0.009653615 0.013462075 -0.031550135 -0.00068446604 -0.036372624 -0.037808344 -0.0233359 0.026048455
-0.020242492 -0.023930326 -0.034910314 0.020984955 -0.014591373 -0.013942872 -0.0023685645 -0.0040790434
-0.023828471 0.02229826 -0.022147715 0.022547334 0.03312647 0.019172708 0.0030793268 -0.0021962037
-0.03885217 -0.007944537 -0.040076144 0.008519273 0.0031308185 -0.013234499 -0.03912482 -0.0036032188
-0.0261294 -0.016208323 -0.022102429 0.012334148 -0.017682662 0.016177557 -0.014434416 0.013332892
0.015739717 -0.02089358 0.0074288724 -0.02606013 -0.005808754 0.008459725 -0.040400352 0.010007223
-0.0039217835 -0.034583863 -0.015114367 0.00208737 -0.003089326 0.004690727 -0.031510923 -0.015785893
-0.023672977 -0.012442972 -0.0020805334 -0.03173865 0.005030174 -0.008441266 0.024315784 0.016031332

backbone.cnn.6.weight f4 [64]
00000000: 828e 803f 6a44 7f3f 8822 803f 6ead 7f3f
00000010: f8bd 7f3f 6e84 7e3f fa51 803f 9149 7f3f
00000020: 74b6 7f3f 4351 7f3f e537 803f 32d9 7f3f
00000030: 451a 803f 0b29 803f b75f 7f3f 223d 7f3f
00000040: 5634 803f 4ee9 7f3f f271 7f3f e4c9 7e3f
00000050: 27ab 7f3f 61ec 7f3f 04a7 7f3f 0486 7f3f
00000060: 18ac 7f3f 818d 803f 1009 803f e17a 7f3f
00000070: 0f9e 7f3f 7f66 803f 4578 7f3f 28b5 7f3f
00000080: d6d2 7f3f 3ec0 7f3f 7065 803f f40c 803f
00000090: f8a7 803f 82e5 7e3f 082e 803f 7503 803f
000000a0: 1615 803f 10bc 7f3f 882e 803f 1a23 803f
000000b0: c7d2 7f3f 9be0 7e3f 28ac 7f3f c553 803f
000000c0: 2f20 803f 383d 803f 9cae 803f 41e2 7f3f
000000d0: a304 803f 02f5 7e3f 461f 803f 4c5e 803f
000000e0: bb20 803f 754b 803f 4e0d 803f 7a4a 803f
000000f0: 4143 803f 7406 803f 0632 803f 8b56 803f
1.004349 0.99713767 1.0010538 0.9987401 0.99899244 0.9942082 1.0025017 0.9972163
0.99887776 0.9973337 1.0017058 0.9994079 1.0008017 1.0012525 0.99755424 0.99702656
1.0015972 0.9996537 0.9978324 0.9952681 0.9987053 0.9997006 0.9986422 0.99813867
0.9987197 1.0043184 1.0002766 0.99796873 0.99850553 1.0031279 0.9979289 0.998858
0.99931085 0.99902713 1.0030956 1.0003953 1.005126 0.9956895 1.0014048 1.0001055
1.0006435 0.99896336 1.00142 1.0010712 0.99930996 0.9956147 0.99872065 1.0025564
1.0009822 1.0018682 1.0053287 0.9995461 1.0001415 0.995926 1.0009544 1.0028777
1.0009989 1.0023028 1.000406 1.0022728 1.0020524 1.0001969 1.0015266 1.0026411

backbone.cnn.6.bias f4 [64]
00000000: 8c67 9fba fba5 a23a f18e 88ba 4f9b 863a
00000010: 72f5 123a 3e74 9f3a c466 8fba 8c2f 4e3a
00000020: b8d5 c7ba f1b8 5f3b a870 89b9 bc7d 7ab9
00000030: 1f4c 03ba 95fd 4a3a eeb7 b138 d298 0fbb
00000040: e623 1e3b f920 11bb 0c8c c2b8 8b39 91ba
00000050: 5367 533a 7be9 c93a b4b5 81b8 6b5e a2ba
00000060: 42b4 863a df9b 0e3b 6c44 a63a 7834 783a
00000070: 79f7 0cbb cfcf b43a 1b89 953a 5b58 c237
00000080: 917e 353b 1946 fa3a b490 64bb 75ae 26ba
00000090: 59ac cab8 e798 84ba 8477 a73a 8028 1d39
000000a0: 850e aeba a680 723a ab24 0c3a 56cd fdb7
000000b0: dfaa beb9 a23a 183a 3d16 41b9 c476 ca38
000000c0: 311b 2bba 1dfd c53a 9237 25ba ad84 e138
000000d0: 9dcd 81ba 1f6b f739 9adc 4539 fbcc 3fbb
000000e0: 9cec bb38 f297 33bb ab60 c8ba 4ad0 a13a
000000f0: f0bd ddba 1a9b 363b c786 97ba 492d 61ba
-0.0012161597 0.0012409085 -0.0010418576 0.0010269674 0.0005606032 0.001216538 -0.0010940661 0.00078653614
-0.0015246188 0.0034137333 -0.00026214612 -0.00023888698 -0.00050085963 0.0007743475 8.474277e-05 -0.0021911156
0.0024130284 -0.0022144897 -9.2767266e-05 -0.0011079771 0.0008064408 0.0015404666 -6.185044e-05 -0.0012387758
0.001027711 0.0021760387 0.0012685186 0.00094682677 -0.002150981 0.0013794842 0.0011408658 2.3167746e-05
0.0027693848 0.0019094377 -0.003487629 -0.00063583936 -9.664213e-05 -0.0010116369 0.0012776707 0.00014987774
-0.0013279474 0.00092507375 0.000534604 -3.0255567e-05 -0.00036366933 0.0005807077 -0.00018414199 9.6542324e-05
-0.0006527184 0.0015105341 -0.0006302531 0.00010753549 -0.0009903196 0.00047191323 0.00018869565 -0.0029266465
8.960927e-05 -0.00274038 -0.0015287598 0.00123454 -0.0016917568 0.0027863444 -0.0011560553 -0.0008589817

backbone.cnn.6.running_mean f4 [64]
00000000: 47f1 333e 719b d03d 08d5 ff3d c246 a43d
00000010: 711e c33d 57e7 df3d 8b0d 043e 167a 223e
00000020: 02b0 733e 715f 733e 7bb0 643e 290d 563e
00000030: 0802 3e3e dafc 193e f03b 6f3e ff08 d23d
00000040: 87ac e33d 9ecb 473e 0fc3 183d 1f82 3e3e
00000050: 3270 5b3e 4f04 043e 9ceb 6a3e 0a88 853e
00000060: 39ec 013e 88d0 db3d aff2 103e eb4c 4c3e
00000070: 2ca2 333e f7c7 bc3d 532b e53d 10cf 103e
00000080: 1d4b 193e d1b6 383d 7128 333e 2064 303e
00000090: 7eaa 9d3d a9b5 623e 2c6a ea3d 6600 8a3e
000000a0: fbbf 573e 02ec 2c3e a4fd c93d 97c7 533e
000000b0: 91b2 763e adf1 e53d c33f 863d a131 1d3e
000000c0: 6032 7c3e d515 2b3d 5d01 e03d 3692 2e3e
000000d0: a802 6e3e 22f9 963e 3d41 683e cfc5 bd3d
000000e0: 006a 7b3e 103c 513e 3063 273e 4f59 7e3e
000000f0: ac7e 483e b244 323e 7eeb 453e ec98 1f3e
0.17572509 0.10185898 0.12491804 0.080213085 0.095272906 0.109327964 0.12895791 0.15866885
0.2379761 0.23766877 0.22332947 0.20903458 0.18555462 0.15037861 0.23362708 0.10255622
0.11116891 0.19511268 0.037295397 0.18604325 0.21429518 0.12892269 0.2294144 0.26080352
0.12687768 0.107331336 0.14155076 0.19951217 0.17542332 0.09217828 0.11189904 0.14141488
0.1497006 0.045096222 0.17495896 0.17225695 0.076985344 0.2213961 0.11446032 0.2695343
0.21069328 0.16886905 0.09862831 0.20681606 0.24091555 0.112277366 0.0655513 0.15350963
0.24628592 0.041768868 0.1093776 0.17047963 0.23243201 0.29486948 0.22681136 0.092662446
0.24552155 0.20433068 0.16346431 0.24838756 0.19579571 0.17409018 0.19328114 0.15585679

backbone.cnn.6.running_var f4 [64]
00000000: 3e96 af3e a78a 2b3f 9d1b 803e 3b9d 1b3f
00000010: 4d1d 053f bca0 d03e b527 933e 6590 f63e
00000020: c829 d03e de7b 393f 87c6 0e3f c83b 033f
00000030: 623f 353f 5a48 5e3e 43a4 1e3f d5cf 383f
00000040: 2d27 103f 5091 b23e 9bf3 613e 40a1 5d3f
00000050: e28b 5b3f 1670 9a3e 4b20 ac3e 0dd9 113f
00000060: bb5c a83e 2671 3e3e acc9 c73e 7efb 1d3f
00000070: 0753 b63e 3f73 c33e 8684 6f3e 6118 af3e
00000080: ebfe e83e c7f3 7c3e 7038 de3e b9f8 f43e
00000090: 71ab 373e e745 503f 6312 8e3e 849f d53e
000000a0: 1fe5 ad3e e681 ab3e 3e38 5b3e 09be 0a3f
000000b0: 4483 6e3f 3524 853e 9e39 6d3e 753c 013f
000000c0: 9a0f 003f 0db5 833e e111 643e 7aee 943e
000000d0: f3e7 c53e c06c 973f 24b9 3c3f 3e6d 5d3e
000000e0: c5ea 8b3f 906f 363f 0800 813e 7b2a b93e
000000f0: 8a09 d63e d727 2b3f 6f6a c03e 1fcd 6b3e
0.34294313 0.6700844 0.25021067 0.6078679 0.51997834 0.4074763 0.28741232 0.4815704
0.40656877 0.7245463 0.5577168 0.51263094 0.7079984 0.21707287 0.61969393 0.72192127
0.5630978 0.3487649 0.22065584 0.8657417 0.8576032 0.3016364 0.33618388 0.5697182
0.32883248 0.1859785 0.3902105 0.6171187 0.3561022 0.38173863 0.23390397 0.34198287
0.45506987 0.24702369 0.43402433 0.4784601 0.17936493 0.8135666 0.27748403 0.41723263
0.33963868 0.33497542 0.21408173 0.5419622 0.93169045 0.26004186 0.2316651 0.50482875
0.50023806 0.25724068 0.22272445 0.29088193 0.38653526 1.1830063 0.7372 0.21623704
1.0931021 0.7126398 0.25195336 0.36165223 0.41804153 0.66857666 0.37581202 0.23027466

backbone.cnn.7.weight f4 [128, 64, 2, 3]
00000000: 7a70 49bd 0ec1 403d d6d6 00bd f92e 4a3d
00000010: c3f2 7a3c 9fe8 263d 8fb6 60bc 6e49 f3bb
00000020: a8fb 12bd 83bd 19bd d7af 32bd e753 44bd
00000030: e790 a53c 4189 4d3d 7fab 2fbd 41e8 963c
00000040: 0216 c13c a049 123d e775 063d 5a21 9c3c
00000050: b664 393d 793b da38 06f2 27bd 27b4 2a3d
00000060: 82af 3a3d 28fe c6ba c5b8 07bd 01e2 20bd
00000070: 4979 533c e488 443c 30df 18bd b795 b93c
00000080: 3620 563c ff7b 6cbc 4e0f 973c ca77 373d
00000090: 9926 21bd d312 3d3c a519 e1bc d206 bf3c
000000a0: 463a 0ebd bc00 163d bca9 ddbc 3ad3 1bbd
000000b0: 8dcd 363d 1837 17ba ad01 9e3c 2f52 a33c
000000c0: 4c84 1a3d 3244 423d 9e5d 01bd 3b9e 083c
000000d0: 3153 853c d736 80bc d220 fcbc 04c9 82bc
000000e0: d474 05bd b1c0 4dba 4a73 003d 3e87 19bd
000000f0: 245d d6bc e8ed 36bd 9b26 6bbc d1d7 853c
00000100: aac4 bc3c 8279 6c3c 5f61 20bd 339b f6bc
00000110: 0725 2f3d 0a8e 20bd be74 e3bc fb5f 3b3d
00000120: 9733 243d 6dd5 de3c 36df 143d ab0b 89bb
00000130: 9744 27bd 9c87 0a3d 9c39 bdbc 3e63 493b
00000140: aae2 c13b 905a 4cbd a14d 483d 17b6 4bbc
00000150: 237d 2a3d d6aa f63c 408d 0a3d 762d f6bc
00000160: 111b 4b3d d4f9 0c3d 577e 4a3d 23e7 a43c
00000170: 61c3 71bc 6c80 47bd 65c6 99bc 8af8 c63c
00000180: 370b 053c 051b 443d 34c7 e43c befa 42bd
00000190: f7d8 ec3c c4d4 4c3d 7276 40bc 045f 4fbd
000001a0: fd94 103d 45e7 463d ce03 013d 01db 41ba
000001b0: 69b3 0e3d 6cd4 5d3c 1fb3 33bd 9eb8 fe3c
000001c0: 648a 9fbc cf0b 04bd bb91 42bd 6281 d53c
000001d0: 088e 3cbd b3f7 0b3d dff1 a23b e95d 463d
000001e0: 66fd cfbc 67ce b13c ab3c 4a3d cea9 47bd
000001f0: f571 843c 6ee8 ff3c 5df2 a6bc 65f6 12bd
00000200: 7ef3 8c3c 72db 12bd 024f 6fbc 4b84 a63c
00000210: efce 933c 4576 033d 8503 233d b89e 2a3c
00000220: da13 023d 8ac9 c13c f6a9 42bd 306c 1f3d
00000230: 4917 f23c 538b 303d 7d02 3ebd 7fda e53c
00000240: 3d00 343d 77b0 0c3d 9b25 2e3d eaa7 efbc
00000250: f8ec a2bb 8758 053d 2564 6c3c d29b c83c
00000260: 4dd8 573d d7c5 ac3c dc13 dbbc 7f3b bc3c
00000270: 0038 9fbc f24c e83b 9db8 483d 5340 ceba
00000280: 0e38 2fbd 4cbc 62bc 7212 203d 6fc8 30bd
00000290: 20d1 d5ba d133 88bb 474e 723c 872e f1bb
000002a0: ae43 c5ba 527c 0dbd 958d 23bc 963d 303c
000002b0: d1bf d73c 95f1 21bd 663a d83b b796 12ba
000002c0: d07c 963c 38c5 243c dcec f7bc 943e 353d
000002d0: 1e43 433d 39e6 143d 99d1 023d da8f d13b
000002e0: 6134 edbc 0c63 fbbc 413d 653a 7ea7 ba3b
000002f0: 3d32 a93c b6fc 5c3c c333 d6b8 a2f9 d8bc
00000300: 32c4 28bd 2408 0f3d 3bd1 67ba 2bd5 36bc
00000310: 77c7 12bd bffa b43c 7280 613a 14b9 973a
00000320: 4f8a 49bc aac4 b0bc 093c 2a3b 4b70 aabc
00000330: a157 b93c 2a4b 2b3c dbed 1dbc 6178 9dbc
00000340: 9bbe 2c3d dfe6 4f3d b9b2 46bd c712 f4bc
00000350: f4f0 a03c 1b04 c93b 01e0 eabc e27d b53c
00000360: 0498 24bd bb17 dc3c 92fd 443c 516c 023d
00000370: f691 d33c ddef 9bbc 35be 30bd 9865 03bd
00000380: 7de9 47bd 0cca 1f3d 8105 473d 70d4 3b3d
00000390: 9ff8 95bc 47cd 1abd 7b7e f33c 4c51 2d3d
000003a0: 407d 333d caba d23a 41eb ae3b 7ee4 4ebd
000003b0: b31f 1abd e712 fa3b 5791 ffbc 514b c53b
000003c0: 79f2 303d 39cf ef3c 2e48 803c e29b 8f3c
000003d0: ff13 14bb 4a8f 0bbd 23bf 153d b4be 533d
000003e0: 6157 18bd d91a 9939 db4f 39bd 8e0f 253d
000003f0: 0a46 5f3d ec05 d9bc 5fd3 e83c 3122 82bc
-0.04917953 0.04705911 -0.031454884 0.049361203 0.015316668 0.04074919 -0.0137154 -0.007424525
-0.03588453 -0.037534248 -0.043624725 -0.047931578 0.020210696 0.050179724 -0.04288816 0.018421294
0.023570064 0.035714746 0.032827284 0.019058872 0.04526206 0.00010406128 -0.041002296 0.041675713
0.045577534 -0.0015181946 -0.033135194 -0.039278034 0.012907335 0.011995528 -0.037322223 0.022654397
0.013069203 -0.01443386 0.018439915 0.044791974 -0.03934345 0.011540133 -0.027478049 0.023318682
-0.034723543 0.036621794 -0.027058475 -0.03804324 0.044629622 -0.00057684025 0.019287908 0.01993665
0.037723824 0.047428317 -0.03158342 0.008338506 0.01627502 -0.01565115 -0.030777369 -0.015964992
-0.03258212 -0.00078488427 0.03135995 -0.037482493 -0.02616746 -0.04466048 -0.014352466 0.01633826
0.023042995 0.014433267 -0.03915536 -0.030103302 0.04275992 -0.03919796 -0.027765628 0.04574583
0.040088262 0.027201379 0.036345683 -0.004182299 -0.040836897 0.033820733 -0.02309876 0.003072932
0.005916913 -0.049891055 0.048902158 -0.01243355 0.041623246 0.030110758 0.033826113 -0.030050974
0.04958636 0.034417942 0.049436893 0.020129746 -0.014756055 -0.048706457 -0.01877136 0.024288435
0.00812035 0.04787733 0.027927019 -0.047602408 0.02891205 0.050007597 -0.01174699 -0.050627723
0.035298336 0.0485604 0.03149777 -0.0007395 0.034839068 0.013539415 -0.043871995 0.031093892
-0.01947517 -0.032237824 -0.04750226 0.026062671 -0.04603389 0.03417177 0.004972681 0.048429403
-0.025389384 0.021704866 0.049374264 -0.048745923 0.01616762 0.03123876 -0.02037924 -0.03587951
0.01720595 -0.03585381 -0.014606239 0.020326754 0.01804301 0.032095212 0.03979828 0.010413818
0.031757213 0.023655672 -0.04752537 0.038921535 0.029552119 0.04310162 -0.04638909 0.028058289
0.04394554 0.034347977 0.042516332 -0.029254872 -0.0049720965 0.03255513 0.014428173 0.024488363
0.052696515 0.021090431 -0.026742868 0.022977589 -0.019435883 0.0070892507 0.049004186 -0.0015735723
-0.042778067 -0.013838839 0.03908009 -0.0431599 -0.0016312934 -0.0041565676 0.014789171 -0.007360283
-0.0015050077 -0.03454239 -0.009982486 0.010756871 0.026336582 -0.03953703 0.0065987585 -0.0005591916
0.018370062 0.010056786 -0.03026431 0.044249132 0.04767143 0.03635237 0.03193817 0.0063953223
-0.02895564 -0.030686878 0.0008744784 0.005696236 0.020653838 0.013487985 -0.000102139566 -0.026486222
-0.04120273 0.034919873 -0.00088431285 -0.011159222 -0.035834756 0.022092221 0.00086022087 0.0011575543
-0.012301042 -0.021578152 0.0025975725 -0.020805499 0.022624793 0.010454932 -0.009639229 -0.01922244
0.042173963 0.050757285 -0.048510287 -0.02979411 0.019646145 0.0061345226 -0.028671267 0.022154752
-0.040184036 0.026866784 0.0120233465 0.03184158 0.025826436 -0.019035274 -0.043150146 -0.03207931
-0.048806656 0.039011046 0.048589233 0.045856893 -0.018307028 -0.037793424 0.029723397 0.04231386
0.04382062 0.0016077396 0.005338103 -0.050510876 -0.037627887 0.007631648 -0.031197233 0.0060209413
0.04319999 0.029273616 0.015659418 0.017530385 -0.0022594926 -0.034072198 0.036559235 0.05169554
-0.037192706 0.00029202437 -0.04524217 0.040298037 0.054510154 -0.026492082 0.028421102 -0.015885444

backbone.cnn.7.bias f4 [128]
00000000: e0cf 393d 755b 3e3d 7539 0fbd add8 333d
00000010: 1587 2e3d cf4b 1a3d e67d 6d3c 3ce2 063d
00000020: 511e babc dd6b 903c 0f44 f6bc 79fd dbbc
00000030: 1e7b e6bc 25c4 4d3d f818 4b3d 3017 c73c
00000040: d487 113d 042f 3ebd 759f 183d 9542 913c
00000050: 385e 1fbc a353 1ebd 1e1b d7bb 0f07 e3bc
00000060: fe2e 14bb 245a 30bd c316 e43c 3f5c 603b
00000070: ba22 aebc 4652 e13c f163 dc3c 9033 efbc
00000080: ca45 103d d942 fa3a 455a 143c 9c69 e239
00000090: b65e 18bd c404 ae3b 7546 a2ba 193d 0c3c
000000a0: b5b2 1fbb fc99 4abd 4b7b e03c 232b 9f3c
000000b0: 9a16 2bbd 713a 053d b01c 233d 8c11 1abd
000000c0: 28e8 01bd 7bd3 22bd 83d2 01bd c2d6 773c
000000d0: 640f 1abd 2c81 073d 7310 e63b f9fa 143d
000000e0: ba40 89bb 5d38 373d 4b3e 13bd 021b 5eba
000000f0: 8db2 f0bc 51ce 193d da2d 27bd 470c d93c
00000100: 4b46 3c3d 2f51 013c ac23 48bd 4eac 423c
00000110: a9f7 50bc aa03 04bc 596c c1bc 018f 3abd
00000120: de57 12bd 9457 c53b 913c c23c 6e6f 7e3c
00000130: ca8e 50bd 531d c1bc dd5b 1b3d ed94 32bd
00000140: 0d02 03bd 60e3 903c bfc7 3dbb 826e 1e3d
00000150: 20ba 463d 99a1 41bd a2c7 19bd ddc4 713c
00000160: f976 72b9 75f2 b23c 211d 8dbc 2920 413d
00000170: 2331 bb3b d9c9 39bd e16f a2bc 0397 3c3d
00000180: fc7f fc3c a4de f43c 6857 293c 2a03 843c
00000190: 9a70 ecbc 63b5 ebba f31d 093d 62f9 3b3d
000001a0: 427a 71bc d7d4 503b 5a6f b1bc ed60 ac3c
000001b0: 3fd4 4d3d 510b 023d 4af3 2ebd 45e5 89ba
000001c0: f1ba e3bc 181f 03bd c76e 3239 be1e 1abd
000001d0: ecda ecb9 0ba7 40bd 9fb7 aebc edad 003d
000001e0: 4658 8cbc 47cb ef3c b72b 0bbd 504e 853b
000001f0: 8cbe 2cbb 6c0c 78bc c087 f8bc e1a1 2d3d
0.04536426 0.04647394 -0.034966905 0.04390781 0.042609293 0.037669953 0.014495349 0.032930598
-0.022719534 0.017629558 -0.03006175 -0.026854264 -0.028134879 0.050235886 0.04958436 0.024303049
0.035529926 -0.046431556 0.037261445 0.017731944 -0.009727053 -0.03865398 -0.006564512 -0.027713327
-0.0022611017 -0.043054715 0.027842885 0.003423467 -0.021256793 0.027505051 0.026903125 -0.029199392
0.035222806 0.0019093408 0.009054725 0.00043184764 -0.0371997 0.0053106267 -0.0012380617 0.008559489
-0.0024367992 -0.049463257 0.02740254 0.019429749 -0.0417696 0.032526437 0.03982228 -0.03761439
-0.031715542 -0.039752465 -0.0316949 0.015126886 -0.037612334 0.033082172 0.007021004 0.03637216
-0.004188624 0.044731487 -0.03594808 -0.00084726524 -0.029382015 0.037550274 -0.04081521 0.026495112
0.045965474 0.007892891 -0.048862144 0.011881901 -0.012754359 -0.008057514 -0.023611235 -0.045546535
-0.035728328 0.006022403 0.023710521 0.015529497 -0.050917424 -0.023573553 0.037929405 -0.043599058
-0.031984378 0.017686546 -0.002895817 0.038679607 0.048517346 -0.047273252 -0.0375439 0.0147564085
-0.00023123239 0.021844128 -0.017225804 0.04714981 0.0057126447 -0.045358513 -0.019828739 0.046042453
0.030822746 0.02989132 0.010335781 0.01611479 -0.028862286 -0.0017983135 0.033475827 0.045892127
-0.014738621 0.0031865144 -0.021659542 0.021042312 0.05025124 0.031749073 -0.042712487 -0.0010520598
-0.027799102 -0.032012075 0.0001701667 -0.037626974 -0.00045176537 -0.047034305 -0.021327792 0.03141587
-0.017131936 0.029271735 -0.033977237 0.0040681735 -0.0026358692 -0.01513968 -0.030338168 0.042390708

backbone.cnn.8.weight f4 [128]
00000000: 2034 803f 2175 7f3f c9e3 7f3f db2f 7f3f
00000010: d166 7f3f 77fa 7f3f 3443 803f 110f 803f
00000020: 1cec 7f3f a2ef 7f3f 28d8 7f3f 56d8 7f3f
00000030: 5232 803f 9f2d 803f c7f1 7f3f 7e3e 803f
00000040: c32a 803f 6abd 7f3f f920 803f 1eae 7f3f
00000050: 92cf 7f3f 8943 803f e1c1 7f3f 548d 7f3f
00000060: 24cf 7f3f ad5f 803f 00c3 7f3f 6906 803f
00000070: 0d0d 803f 9aad 7f3f a66f 7f3f 5005 803f
00000080: 1271 7f3f 0b02 803f a879 7f3f e112 803f
00000090: d936 803f 4d06 803f bfcf 7f3f d90e 803f
000000a0: 123f 7f3f 3824 803f 3415 803f e91e 803f
000000b0: dc84 7f3f 96a2 7f3f 12f6 7f3f 3304 803f
000000c0: ca21 803f 4aae 7f3f b513 803f 6953 803f
000000d0: bfa0 7f3f 39c9 7f3f 0221 7f3f 8af0 7f3f
000000e0: 00d3 7f3f 6f34 803f a4e3 7f3f 3238 803f
000000f0: 310a 803f 7705 803f 23e4 7f3f 97f9 7f3f
00000100: 6715 803f abed 7f3f 6f83 803f 67ec 7f3f
00000110: f218 803f 4c31 803f 4e83 7f3f 8fc9 7f3f
00000120: 6feb 7f3f f530 803f fe50 803f 1544 803f
00000130: 0d39 803f cb92 7f3f 0bcf 7f3f 2ad5 7f3f
00000140: 0b43 7f3f 0018 803f ca71 7f3f adfa 7f3f
00000150: 96d4 7f3f 2106 803f 3309 803f 75cc 7f3f
00000160: 41b6 7f3f 8eab 7f3f 7916 803f 1c16 803f
00000170: 9714 803f 5300 803f 7805 803f 5358 803f
00000180: f64a 803f 322d 803f e5a8 7f3f aafe 7f3f
00000190: 5300 803f 43cb 7f3f a50a 803f 1717 803f
000001a0: cf46 803f 3e39 803f 012f 803f 1f07 803f
000001b0: da85 7f3f 0617 803f cf1d 803f 8416 803f
000001c0: dd0b 803f b4b3 7f3f 74d8 7f3f 7e92 7f3f
000001d0: d602 803f 0b01 803f ceb4 7f3f 46de 7f3f
000001e0: fe1b 803f 6239 803f 7ed3 7f3f 32ba 7f3f
000001f0: 3231 803f 3dcf 7f3f 43e0 7f3f eeb8 7f3f
1.0015907 0.997881 0.9995695 0.99682397 0.9976626 0.99991554 1.0020509 1.0004598
0.9996965 0.99975026 0.99939203 0.9993948 1.0015357 1.0013922 0.999783 1.0019071
1.001305 0.998984 1.0010062 0.99875057 0.999261 1.002061 0.9990521 0.99825025
0.99925447 1.0029198 0.9990692 1.0001956 1.0003983 0.9987427 0.99779737 1.0001621
0.99781907 1.0000623 0.9979501 1.0005761 1.0016738 1.0001923 0.9992637 1.0004531
0.9970561 1.0011053 1.0006471 1.0009433 0.998121 0.9985746 0.9998485 1.0001281
1.0010312 0.9987532 1.0006014 1.0025455 0.99854654 0.99916416 0.9965974 0.9997641
0.99931335 1.0016001 0.9995673 1.001715 1.000311 1.0001668 0.99957484 0.9999022
1.0006531 0.9997203 1.004011 0.99970096 1.0007613 1.0015044 0.9980973 0.9991693
0.9996862 1.001494 1.0024717 1.0020777 1.001741 0.99833363 0.999253 0.9993464
0.99711674 1.0007324 0.99783003 0.99991876 0.99933755 1.000187 1.0002807 0.9992135
0.9988747 0.99871147 1.0006858 1.0006747 1.0006284 1.0000099 1.0001669 1.0026954
1.0022876 1.0013793 0.9986709 0.9999796 1.0000099 0.9991953 1.0003248 1.0007046
1.0021609 1.0017469 1.0014344 1.0002173 0.99813616 1.0007026 1.0009097 1.0006871
1.000362 0.9988358 0.99939656 0.99832904 1.0000865 1.0000318 0.9988526 0.9994854
1.0008543 1.0017512 0.99932086 0.99893486 1.0015013 0.99925596 0.9995157 0.99891555
